hw3/model/enc_only_neural_crf_pos/model.pt (torch, 617590 bytes, 15 tensors)

weight f4 [2372, 50]
0	0x400d1b0d	2.204776
1	0x3fc80978	1.562789
2	0x3f49e345	0.7886241
3	0xc014d96f	-2.325771
4	0x3f0ac5b8	0.54207945
5	0xbfb8e164	-1.4443784
6	0xbe72b0d7	-0.23700272
7	0xbff395bd	-1.9030071
8	0xbf385662	-0.7200681
9	0x3fca45fd	1.5802609
10	0xbec6bffb	-0.38818344
11	0xbfcd308b	-1.6030439
12	0xbf63fa87	-0.8905415
13	0xbf11842c	-0.56842303
14	0xbf6289e7	-0.8849167
15	0x3f61284c	0.87952113
16	0x3fef49d0	1.8694401
17	0x3e152d44	0.14568049
18	0xbf1f7015	-0.622804
19	0x3e2d0376	0.16895851
20	0xbf871b23	-1.0555156
21	0x3fa3982c	1.2780814
22	0x3f33f720	0.7029896
23	0x3ff07d8f	1.8788317
24	0x3fc387ef	1.5275859
25	0x3fc21cb7	1.5165013
26	0x3f5e3813	0.8680431
27	0x3f9f69d0	1.2454166
28	0xbc76c133	-0.015060711
29	0x3de5df08	0.112241805
30	0xbed44daf	-0.41465518
31	0x3f108cf8	0.564651
32	0xbf9b982f	-1.2155818
33	0xbf946d70	-1.1595898
34	0xbeba9110	-0.364388
35	0x3fe0c5ba	1.7560341
36	0x3e44797f	0.19186972
37	0xbe814853	-0.25250491
38	0x3ef19f3a	0.47191793
39	0xbf2bf985	-0.6717761
40	0xbfc38e6e	-1.5277841
41	0x3f96a1f6	1.1768177
42	0xbf7a2c22	-0.9772359
43	0xbf0f6ef4	-0.56028676
44	0xbfc0be2e	-1.5058038
45	0x4015d874	2.3413363
46	0xbfae7ef5	-1.3632494
47	0xbe808692	-0.2510267
48	0xbf8f9608	-1.1217661
49	0xbf50d985	-0.8158191
50	0x3eabe332	0.33571774
51	0x3efb2956	0.49054974
52	0xbf2418b6	-0.64100206
53	0x3f813369	1.0093814
54	0xbf69dd16	-0.91352975
55	0xbf7a38be	-0.9774283
56	0xbfe02aa4	-1.7513013
57	0xbe840f6c	-0.25793016
58	0x3e7d4c6f	0.24736188
59	0x3eeafac9	0.4589446
60	0xbed15d94	-0.40891707
61	0x3fd0ca0f	1.6311663
62	0xbfb10cc7	-1.3832024
63	0x3fcee689	1.6164104
64	0x3f958995	1.1682612
65	0x3f8acf22	1.0844462
66	0x4025e603	2.5921638
67	0x3f3e65f1	0.743743
68	0x3e1033e8	0.140823
69	0xbf012f3e	-0.5046271
70	0xbfa76728	-1.3078356
71	0x3fb03e14	1.3768945
72	0xbed73d24	-0.42038834
73	0x3f3ce470	0.7378607
74	0x3eacee9f	0.33775803
75	0x3f414dd9	0.7550941
76	0x3f522dfb	0.8210141
77	0xbf08a176	-0.5337137
78	0xbff4fae0	-1.9139061
79	0xbf63424e	-0.8877305
80	0x3dc54f4c	0.09634265
81	0xbf21766f	-0.6307134
82	0xbf87db86	-1.0613868
83	0xbf5b529c	-0.85672927
84	0x3e5ed9cc	0.2176277
85	0x3f2777fc	0.65417457
86	0x3f6f303d	0.9343298
87	0x3ea7a6e5	0.32744518
88	0x3f74aa6f	0.9557256
89	0xbe6622ac	-0.22474164
90	0xbf4ce78d	-0.8004082
91	0x3f6fa2a1	0.93607527
92	0xbffe0ac7	-1.9847039
93	0xbf2cf08f	-0.67554563
94	0x3f949eb7	1.1610936
95	0x3f415f3a	0.7553593
96	0xc02d3197	-2.7061517
97	0x3f3ed773	0.745475
98	0x3f165d10	0.5873575
99	0xbe332868	-0.17495883
100	0x3f70c5a1	0.9405156
101	0x3f139b3a	0.5765873
102	0x3f689bef	0.90862936
103	0xbf3e5230	-0.7434416
104	0xbedd73dc	-0.43252456
105	0x3ed40b22	0.41414744
106	0x3e32b930	0.17453456
107	0xbe217ba0	-0.15769815
108	0x3f04c04a	0.5185591
109	0x3fb605c9	1.4220515
110	0xbe7cedb3	-0.2470005
111	0xbf0d709c	-0.55249953
112	0xbfdf21d7	-1.7432202
113	0xbe1784d5	-0.14796765
114	0xbf50a791	-0.81505686
115	0x3f417678	0.75571394
116	0x3f815099	1.0102721
117	0x3ebafb26	0.36519736
118	0xbf2fdcab	-0.6869609
119	0x3e8ed3aa	0.27895862
120	0xbe9b961f	-0.3038797
121	0x3f07d90f	0.5306558
122	0xbda72cf7	-0.08162873
123	0x3f8a287e	1.0793607
124	0x3fb1c7ac	1.388906
125	0x3f2567f3	0.6461174
126	0x3f5f6256	0.87259424
127	0x3ec1caa2	0.3784991
128	0x400d976b	2.2123668
129	0x3f54b98b	0.83095616
130	0xbfc057a4	-1.5026746
131	0xbfa8e5bf	-1.3195113
132	0x3dfd5ec0	0.12371588
133	0x3fa69bb0	1.3016262
134	0x3ed210ec	0.41028535
135	0x3f323b41	0.69621664
136	0x3f5e7b72	0.8690711
137	0x3e91acc8	0.28452134
138	0xbfc60421	-1.547001
139	0x3f9a164b	1.2038053
140	0xbed57f48	-0.4169867
141	0x3fab1004	1.3364263
142	0xbf7d0c19	-0.98846585
143	0x3f64062e	0.8907193
144	0xbf810420	-1.0079384
145	0x3f9dc3d1	1.2325383
146	0x3faf1a69	1.3679935
147	0x3fde9947	1.7390527
148	0x3d402e88	0.046919376
149	0xbee326e7	-0.44365618
150	0xbf0e92d7	-0.5569281
151	0x3dd446fd	0.103651024
152	0x3e129187	0.14313327
153	0x3f7192d8	0.9436469
154	0xbf2b8805	-0.67004424
155	0x3fba9c66	1.4578979
156	0xc0290628	-2.6410007
157	0xbf209aae	-0.6273602
158	0xbf7894b0	-0.9710188
159	0x3f26c4ea	0.65144217
160	0xc0023244	-2.034318
161	0xbbf19955	-0.007373015
162	0xbe513fe0	-0.20434523
163	0xbe59cd4f	-0.21269725
164	0x3dff6e2f	0.12472188
165	0xbf0ba807	-0.54553264
166	0x3ec7e83e	0.39044374
167	0xbf6e08de	-0.9298228
168	0xbfe6c9f9	-1.8030387
169	0x3f8ee74c	1.1164336
170	0x3fab982d	1.3405815
171	0x3e4f79e5	0.20261343
172	0xbfde7518	-1.7379484
173	0x3f76050e	0.9610146
174	0x3f75e9ef	0.9606008
175	0x4010038c	2.2502165
176	0x3e4dff31	0.20116879
177	0x3c9b3929	0.018948155
178	0xbf179160	-0.592062
179	0xbe9f134b	-0.31069407
180	0xbf518943	-0.8185007
181	0xbfe80ef0	-1.8129559
182	0xbf794e2f	-0.97384924
183	0xbf3d074b	-0.73839253
184	0xbf0fc7a2	-0.5616399
185	0xbfc3fa8e	-1.5310838
186	0xc008d60a	-2.138064
187	0x3ea79383	0.3272973
188	0x3f96414f	1.1738681
189	0xbeae9ba7	-0.34103128
190	0x3f413da9	0.7548471
191	0x3f70b5af	0.9402723
192	0x3fc732e2	1.5562403
193	0xbf3e29c8	-0.74282503
194	0x3f425956	0.75917566
195	0xbdd19713	-0.10233893
196	0xbfac4419	-1.3458282
197	0x3f1144ff	0.56745905
198	0x3e8c508c	0.27405202
199	0x3fb3efa4	1.4057508
200	0x3f4b7726	0.7947868
201	0x3feeed76	1.8666217
202	0xbf14ec5a	-0.58173144
203	0xbf8c9ac5	-1.0984732
204	0x3cdf35a2	0.027247254
205	0x3f6bf9f2	0.9217826
206	0x3f880603	1.0626835
207	0x3e5f6ff0	0.21820045
208	0xbf0ff5f4	-0.5623467
209	0xbf847268	-1.0347414
210	0xbf42816a	-0.7597872
211	0xbf5a9859	-0.85388714
212	0xbdb4f82a	-0.08836396
213	0x3ecd56b1	0.40105203
214	0xbec40345	-0.38283744
215	0xc00373c3	-2.0539405
216	0xbe038e01	-0.12847139
217	0x3fa9f2a9	1.3277179
218	0xc0039f8b	-2.0566127
219	0x3fa8bd7a	1.3182824
220	0x3e9e553c	0.30924404
221	0xbe6000b3	-0.21875267
222	0x3f5044a5	0.81354743
223	0x3ff9c66d	1.951368
224	0x3e871884	0.2638589
225	0x3ff80765	1.9377257
226	0x3ebfb09c	0.3743943
227	0xbf93a4ca	-1.1534665
228	0xbeaad25f	-0.33363625
229	0xbe1c3121	-0.15253116
230	0x3e7569de	0.23966166
231	0x3fe008dd	1.7502705
232	0x3c38ca3f	0.011278688
233	0xbf93fd43	-1.1561664
234	0xbfe91c7e	-1.821182
235	0xbf973d8e	-1.181566
236	0xbe1f3400	-0.1554718
237	0x3ead2d74	0.3382374
238	0x3ee47d03	0.44626626
239	0x3f283c26	0.6571678
240	0xbf6ca52e	-0.92439544
241	0x3f0655df	0.5247478
242	0xbf4dbf36	-0.8036989
243	0x3f345059	0.704351
244	0xbf90b3ef	-1.1304911
245	0x3e56bcff	0.20970534
246	0xbf10af07	-0.5651707
247	0x3fda8ce4	1.7074246
248	0x3f8035e8	1.0016451
249	0xbf277a46	-0.6542095
250	0x3f7e8dbc	0.9943502
251	0x3ea18b39	0.3155153
252	0x3eb484d7	0.352576
253	0x3edbfc6f	0.4296603
254	0x3f0a1d90	0.5395136
255	0x3e6192c7	0.22028647

weight_ih_l0 f4 [100, 50]
0	0xbeb687a8	-0.35650373
1	0x3ef65221	0.48109534
2	0xbcab20b9	-0.020889627
3	0xbe66486d	-0.22488566
4	0xbc4ab86c	-0.012373071
5	0xbdfb03a6	-0.12256555
6	0xbe6f00dc	-0.23340172
7	0xbd0a51bf	-0.033769365
8	0x3e496a77	0.1966952
9	0x3cabb4ba	0.0209602
10	0xbe8305bd	-0.25590315
11	0xbd7a8b5f	-0.06116807
12	0x3cb46825	0.022022316
13	0x3d4c2b9a	0.04984627
14	0xbe85a2cf	-0.26100776
15	0x3ebc6a82	0.3680001
16	0x3ecf8fa5	0.4053928
17	0x3dea1fb8	0.11431831
18	0x3e7f59ff	0.24936675
19	0xbe99df76	-0.300533
20	0xbeda65f7	-0.42655918
21	0x3ed24f09	0.41075924
22	0xbd7d6589	-0.06186441
23	0x3ea81c8e	0.32834285
24	0x3dfaa22d	0.12237964
25	0x3e036158	0.12830102
26	0xbea24139	-0.31690386
27	0xbc52b356	-0.01286014
28	0x3e8164c6	0.25272197
29	0xbea145e5	-0.31498638
30	0xbd95db13	-0.07317176
31	0xbe4f6f05	-0.20257194
32	0x3e084d9b	0.13310854
33	0x3dc93014	0.09823623
34	0xbd5cb3f3	-0.05388255
35	0xbe1bf22a	-0.15229097
36	0xbe026283	-0.12732892
37	0x3e4bf47f	0.19917487
38	0x3edf965f	0.43669412
39	0xbee41701	-0.445488
40	0xbe3aa659	-0.18227519
41	0x3d711de5	0.0588664
42	0xbeccbe1e	-0.39988798
43	0x3d8c48fb	0.068498574
44	0x3d72db72	0.05929131
45	0x3e76e0f5	0.24109252
46	0xbe747c4b	-0.23875539
47	0x3e0d4b05	0.13798149
48	0x3c9e756d	0.019343102
49	0x3e89564c	0.26823652
50	0x3eaf8245	0.34279075
51	0xbe12e2f2	-0.14344385
52	0xbc1d0189	-0.009582886
53	0xbe67bf12	-0.22631481
54	0x3e4649b1	0.19364049
55	0xbe7cd6ab	-0.24691264
56	0xbe8d551c	-0.27603996
57	0x3e22ae92	0.15886906
58	0xbe93a0bf	-0.28833577
59	0x3d9657ee	0.0734099
60	0xbe06c88a	-0.13162437
61	0xbcf5b1db	-0.029992035
62	0x3dfc0aab	0.12306722
63	0x3efd6745	0.4949285
64	0xbe98713e	-0.29773897
65	0xbd8f54fa	-0.0699863
66	0xbdc844f5	-0.097787775
67	0xbd9584a9	-0.073006935
68	0xbdc50a28	-0.09621078
69	0xbe2e19e0	-0.17002058
70	0xbea35ffc	-0.31909168
71	0x3e92297d	0.28547278
72	0x3db0fa8e	0.086415395
73	0xbc054e72	-0.008136379
74	0x3e860134	0.26172793
75	0x3dbfb9e9	0.093616314
76	0xbe1fc2dd	-0.15601678
77	0x3c0b37bb	0.008497174
78	0xbdf434da	-0.11924143
79	0xbbc481e3	-0.005996929
80	0x3ec80bbb	0.3907145
81	0xbea5bd2e	-0.32370895
82	0x3d9f45ce	0.07776986
83	0xbe9ad778	-0.30242515
84	0xbe1f5622	-0.15560201
85	0xbe3189a8	-0.17337668
86	0x3c984c49	0.018591063
87	0xbe7662e2	-0.24061158
88	0x3de8ad57	0.11361187
89	0xbe3f6253	-0.18689851
90	0x3ef7cd85	0.48398986
91	0xbe67bcdb	-0.22630636
92	0x3dc83b22	0.09776904
93	0x3d38df77	0.045134988
94	0x3e365483	0.17805676
95	0x3eb6352f	0.3558745
96	0x3dea9a5d	0.11455224
97	0xbd9318e5	-0.07182483
98	0x3d83f105	0.06442455
99	0xbe9fe806	-0.31231707
100	0xbd4d7d54	-0.05016835
101	0x3e5e3778	0.21700847
102	0xbddd7e9a	-0.10815163
103	0x3db0ca0d	0.08632288
104	0x3bea90a0	0.007158354
105	0x3e6e1c67	0.23253022
106	0x3d94b515	0.07261101
107	0xbe9faf08	-0.31188226
108	0xbd93be67	-0.07214051
109	0x3e5177ca	0.20455852
110	0xbeccff81	-0.40038684
111	0x3e55ae71	0.20867325
112	0x3d423659	0.04741511
113	0x3e2885d0	0.16457295
114	0xbc7b2923	-0.015329632
115	0xbde187ec	-0.11012253
116	0x3d82e644	0.06391576
117	0x3e8b72cc	0.2723602
118	0x3db1bb9a	0.0867836
119	0xbe3e130d	-0.18561955
120	0xbccdb269	-0.025109487
121	0x3e25f016	0.16204867
122	0xbe07c5c9	-0.13259043
123	0xbe374b34	-0.17899781
124	0x3ebf3b18	0.37349772
125	0x3e02a919	0.12759818
126	0xbe008bc3	-0.12553315
127	0x3d9e2672	0.077221766
128	0xbd8bbbd2	-0.06822933
129	0x3d4439fa	0.047906853
130	0x3dba59ee	0.09099184
131	0x3e452b8b	0.19254892
132	0xbd5eca49	-0.054392133
133	0xbe4a9992	-0.19785145
134	0xbe125649	-0.14290728
135	0xbe0e9d36	-0.13927159
136	0xbe6aad37	-0.22917639
137	0x3e4cf5c6	0.2001563
138	0x3e9b847c	0.30374515
139	0xbe2a8454	-0.16652042
140	0x3e4264f7	0.18983828
141	0xbdfdec8c	-0.12398633
142	0x3d756842	0.05991388
143	0x3e5296ef	0.20565389
144	0xbcb637b1	-0.022243353
145	0xbd06bd7d	-0.032895554
146	0xbd968f8f	-0.073516004
147	0xbda1a8bc	-0.07893512
148	0xbe9e2725	-0.3088924
149	0x3acad571	0.0015474987
150	0xbe1a2524	-0.1505323
151	0xbe6485bf	-0.22316645
152	0x3debf21c	0.11520788
153	0xbe05bfdd	-0.13061471
154	0x3c9f074b	0.019412657
155	0xbdaf3860	-0.085556746
156	0x3dd60ce1	0.10451675
157	0xbe57785f	-0.21042012
158	0xbdb2665e	-0.08710931
159	0xbd635ea4	-0.05551018
160	0xbc527355	-0.01284488
161	0xbc87de52	-0.016585503
162	0xbeb95bba	-0.36202794
163	0x3c0a1d61	0.008429856
164	0xbd36cbb3	-0.044627856
165	0xbec86be4	-0.39144814
166	0x3e3fdf5a	0.18737546
167	0x3ec36195	0.38160387
168	0xbe735cd2	-0.23765877
169	0xbcd43558	-0.025904343
170	0x3eb9d216	0.36293095
171	0x3c0e4832	0.008684205
172	0x3bf3a717	0.00743569
173	0xbece0544	-0.40238392
174	0x3e52a4ee	0.20570728
175	0x3ea8d9c9	0.32978657
176	0xbbbabe4f	-0.005698956
177	0xbe7519bd	-0.239356
178	0x3e0b7573	0.13619022
179	0x3dfbf220	0.12302041
180	0xbddcde6a	-0.107846096
181	0x3e892499	0.26785734
182	0xbe2b3e39	-0.16722955
183	0x3dae8827	0.08522063
184	0xbe2c7390	-0.16840959
185	0xbe2e7cdc	-0.17039818
186	0x3d167712	0.036734648
187	0xbebb2d0f	-0.36557814
188	0x3e443938	0.19162452
189	0x3e3a14d2	0.18172005
190	0x3ec27ee0	0.37987423
191	0xbdbacfbb	-0.09121653
192	0x3e9a3b1e	0.30123228
193	0x3e42c86f	0.19021772
194	0xbe1857f9	-0.14877309
195	0x3e2a6043	0.16638283
196	0xbe33c5eb	-0.17555968
197	0xbe422344	-0.18958765
198	0x3e97ed3f	0.29673192
199	0x3da91d69	0.08257563
200	0x3ace939c	0.0015760544
201	0xbe8b2efc	-0.27184284
202	0xbd5b7ecf	-0.05358773
203	0xbe591e19	-0.21202888
204	0xbdad2948	-0.084551394
205	0x3da002c9	0.07813031
206	0x3e91b52b	0.28458533
207	0xbcd08efb	-0.025458803
208	0xbd595b5e	-0.05306565
209	0x3e2d90b4	0.16949731
210	0x3e8524e0	0.26004696
211	0x3e0d93d3	0.13825922
212	0xbe64c10a	-0.22339264
213	0xbe35b592	-0.17745045
214	0x3dc3ff5b	0.095701896
215	0xbd1f3e11	-0.03887755
216	0xbe2223a2	-0.15833905
217	0x3eaa68ad	0.33282986
218	0x3e24bd3a	0.16087809
219	0xbec17480	-0.37784195
220	0xbe66a6a7	-0.2252451
221	0x3d639414	0.05556114
222	0x3e3c2177	0.18372141
223	0xbe9418c5	-0.28925148
224	0x3dc85e67	0.09783631
225	0x3e25280b	0.16128556
226	0x3d5590ac	0.052139923
227	0x3ea98293	0.33107433
228	0xbe865e26	-0.26243705
229	0x3cbf36ce	0.023341563
230	0xbdc26c2a	-0.09493287
231	0xbe979b0b	-0.29610476
232	0x3daeb9ff	0.0853157
233	0x3d40bcbe	0.047055
234	0xbd33793b	-0.043816786
235	0x3d04218d	0.03225856
236	0xbe3866fd	-0.18008037
237	0xbda1e87b	-0.0790567
238	0xbc2180a4	-0.0098573305
239	0x3de67c63	0.11254194
240	0x3e25a3ef	0.16175817
241	0xbe7863b6	-0.24256787
242	0xbea0c9ac	-0.31403863
243	0xbe0b6297	-0.13611828
244	0x3cbf5cbf	0.023359654
245	0xbbd8f4a4	-0.0066209603
246	0x3e113dcd	0.14183731
247	0x3dc39867	0.09550553
248	0xb9478c21	-0.00019030321
249	0x3d226c2b	0.03965394
250	0x3c5547a0	0.013017565
251	0xbe50747d	-0.20356937
252	0x3e57424d	0.21021385
253	0xbd3a37ff	-0.04546356
254	0x3e4191a2	0.18903211
255	0xbe832c41	-0.256197

weight_hh_l0 f4 [100, 25]
0	0xbeb378dc	-0.35053146
1	0xbe7b4bde	-0.2454066
2	0x3e929805	0.28631607
3	0xbe6a4d82	-0.2288113
4	0xbd967344	-0.07346204
5	0x3ed3e685	0.4138681
6	0x3ec6651f	0.38749024
7	0xbda49f71	-0.080382235
8	0xbe96ba65	-0.29439083
9	0x3d516207	0.051118877
10	0x3ec626b1	0.38701394
11	0x3e7f7324	0.24946266
12	0xbda81ec4	-0.08208993
13	0x3df4ce8f	0.119534604
14	0xbd4ee60c	-0.05051236
15	0x3ea0656c	0.3132738
16	0xbc6f7dd9	-0.014617407
17	0x3f13ebe0	0.5778179
18	0x3deb77a8	0.11497432
19	0xbda9fd51	-0.083002694
20	0xbdaea14f	-0.08526861
21	0xbea75e80	-0.32689285
22	0xbeb78cf1	-0.35849717
23	0xbe0ead0b	-0.13933198
24	0x3d830d0f	0.06398975
25	0xbe88e624	-0.26738083
26	0xbe698c82	-0.22807506
27	0x3e1378bf	0.1440153
28	0x3e06aa69	0.13150944
29	0xbe031b2b	-0.12803333
30	0x3ed07f0f	0.40721938
31	0x3e87829d	0.26466838
32	0x3e6e3c18	0.23265111
33	0xbe9a001a	-0.30078202
34	0x3d25f886	0.040520214
35	0x3e8e72f2	0.2782207
36	0x3e3f6f51	0.18694808
37	0xbe5f3d04	-0.2180062
38	0xbe13a4d3	-0.14418344
39	0x3dcc02ac	0.09961447
40	0xbc52d4b9	-0.0128681
41	0x3d8b6016	0.06805436
42	0x3eaca2f0	0.3371806
43	0x3eaf2d76	0.3421437
44	0x3df2066b	0.118176304
45	0xbe4bd1e1	-0.19904281
46	0xbe5d9a54	-0.21640903
47	0xbdce2384	-0.10065368
48	0x3ea7651d	0.3269433
49	0x3d0bebf1	0.034160558
50	0xbe628719	-0.22121848
51	0xbd538e34	-0.051649287
52	0x3e782a92	0.2423499
53	0xbe977563	-0.29581746
54	0xbe80e211	-0.25172475
55	0x3eefe2a2	0.46852595
56	0x3e9d1988	0.3068354
57	0xbcb8904e	-0.022529747
58	0xbe9e7cb2	-0.3095451
59	0x3e043d94	0.12914115
60	0x3e63335c	0.22187561
61	0x3e65cd64	0.22441632
62	0xbeb30c59	-0.34970358
63	0xbe3b73e2	-0.18305925
64	0xbdf9d4af	-0.12198769
65	0x3ea0abee	0.31381172
66	0x3de2dd74	0.11077395
67	0x3ea6c022	0.3256846
68	0x3e88c50c	0.26712835
69	0xbd7eb5ad	-0.06218498
70	0xbe013b9a	-0.12620392
71	0xbe2d532d	-0.1692626
72	0xbef92d77	-0.486675
73	0x3d5e3601	0.05425072
74	0x3e639f1e	0.22228667
75	0xbd8c2a51	-0.06844009
76	0xbe887243	-0.26649675
77	0x3e7ba358	0.2457403
78	0xbdd0e095	-0.101990856
79	0xbea1b77a	-0.31585294
80	0x3ed11641	0.4083729
81	0x3ef38dd5	0.47569147
82	0x3e332cdd	0.17497583
83	0xbef31b3d	-0.4748172
84	0x3e13fa1b	0.14450876
85	0x3eca4b0e	0.39510387
86	0x3e0de285	0.13855942
87	0xbdfab66b	-0.12241825
88	0xbd60af18	-0.054854482
89	0xbeb91b84	-0.36153805
90	0x3edc9cdc	0.43088424
91	0x3e18adeb	0.14910094
92	0x3e9eb919	0.31000593
93	0x3efaf5d5	0.4901568
94	0x3e4b29d3	0.19840173
95	0xbd410526	-0.04712405
96	0xbecb16b9	-0.39665774
97	0xbeb6096a	-0.35554057
98	0xbb04a0d2	-0.0020237458
99	0x3d0388e5	0.032112975
100	0xbe8d2893	-0.27570018
101	0xbcdeed65	-0.027212808
102	0x3ed5ef3a	0.41784078
103	0x3d0e6d52	0.034772225
104	0xbeaa0300	-0.33205414
105	0x3e9cdaf8	0.3063581
106	0x3e4f2ba0	0.20231485
107	0x3e24f089	0.16107382
108	0xbda643c7	-0.08118396
109	0x3e0d50be	0.13800332
110	0x3e912282	0.2834664
111	0xbcff9a02	-0.031201366
112	0xbea38c27	-0.31942865
113	0xbdf126b7	-0.117749624
114	0xbe800912	-0.2500692
115	0x3e204b2e	0.15653679
116	0xbe37ad98	-0.17937315
117	0x3eb0e0ea	0.34546596
118	0x3e6f3686	0.23360643
119	0x3e0c1be3	0.13682513
120	0x3da74aca	0.08168562
121	0xbe6af5aa	-0.22945276
122	0xbdddc808	-0.108291686
123	0xbe112d9a	-0.14177552
124	0x3e856302	0.260521
125	0xbe8ebc5b	-0.2787808
126	0xbe92303f	-0.28552434
127	0x3e8fdfb6	0.28100365
128	0xbe848fb5	-0.2589089
129	0xbe033a78	-0.12815273
130	0x3e8f2a12	0.27961785
131	0x3e3983b9	0.18116654
132	0xbe322765	-0.1739784
133	0x3d999607	0.074993186
134	0x3bbef3d1	0.005827405
135	0x3ee53645	0.44767967
136	0x3dd14eab	0.10220083
137	0xbe5584a3	-0.20851378
138	0x3e0808fc	0.13284677
139	0xbcaa1645	-0.020762572
140	0x3e3513e5	0.1768337
141	0xbda0dcc0	-0.07854605
142	0x3ed11799	0.40838316
143	0x3e0038a9	0.12521614
144	0x3dd1a403	0.10236361
145	0xbe4a9be3	-0.19786029
146	0xbe9ff07d	-0.31238165
147	0xbe931431	-0.28726342
148	0xbdeef09a	-0.11666985
149	0x3e4e8908	0.20169461
150	0xbf01c92d	-0.50697595
151	0xbe2ce1bd	-0.16882987
152	0x3e5155cd	0.20442887
153	0xbe83c272	-0.25734288
154	0xbdee5ece	-0.11639176
155	0x3e34c6ab	0.17653911
156	0x3ef963e3	0.4870902
157	0x3dfcbc8a	0.123406485
158	0xbddffda1	-0.10937048
159	0x3e984cf7	0.2974622
160	0x3eea28f1	0.4573436
161	0x3ea2535e	0.3170423
162	0xbd00046a	-0.03125421
163	0xbc766b76	-0.015040269
164	0xbe89c63f	-0.26909062
165	0x3dc2d1dd	0.095126845
166	0x3d835e78	0.06414503
167	0x3e76ce59	0.24102153
168	0x3ee0dc2e	0.43917984
169	0xbc256c96	-0.01009669
170	0xbc3d9417	-0.011570952
171	0xbe9ae779	-0.30254725
172	0xbe41307f	-0.18866156
173	0x3ebf97df	0.37420556
174	0x3e97d31d	0.29653254
175	0xbe168434	-0.14698869
176	0x3e23858b	0.15968911
177	0x3e1b0825	0.15139826
178	0xbe040210	-0.12891412
179	0xbe2186c4	-0.15774065
180	0x3e3b994a	0.18320194
181	0x3e787882	0.2426472
182	0x3d855249	0.06509835
183	0xbecc55c2	-0.39909178
184	0x3ebda76f	0.37041804
185	0x3eca2b1c	0.39486015
186	0x3e419edd	0.18908258
187	0xbda0343e	-0.078224644
188	0xbe8a861a	-0.27055436
189	0xbe9b8d35	-0.3038117
190	0x3e804cf2	0.25058705
191	0x3e3afb3b	0.182599
192	0x3d873a4c	0.06602916
193	0x3ede672b	0.43438086
194	0xbe99ea2f	-0.3006148
195	0xbe881be3	-0.26583776
196	0x3cb83e7b	0.02249073
197	0xbee89a1e	-0.45430082
198	0x3dd071f2	0.10177983
199	0x3cb7e058	0.022445843
200	0xbec7c489	-0.39017132
201	0xbda2ed93	-0.0795547
202	0x3ef37c9d	0.4755601
203	0x3e0c587d	0.1370563
204	0xbec73edc	-0.38915145
205	0x3e48f0bb	0.19623081
206	0x3f0a8ed4	0.5412419
207	0x3e60a520	0.2193799
208	0xbe200f17	-0.15630756
209	0x3da6aaac	0.08138022
210	0x3ed11a9b	0.4084061
211	0x3e792b99	0.24333037
212	0xbe93fd79	-0.28904322
213	0xbd696151	-0.056977574
214	0xbcfcae0c	-0.03084471
215	0x3e8a85f6	0.2705533
216	0xbd15794a	-0.036492623
217	0x3eb413f1	0.35171464
218	0x3e52e371	0.20594575
219	0xbaf8fbe8	-0.0018995972
220	0xbe723dc4	-0.23656374
221	0xbe9b49aa	-0.3032964
222	0xbf03086f	-0.51184744
223	0x3de65cf2	0.11248197
224	0x3e1dbe56	0.15404639
225	0xbde1014e	-0.10986577
226	0xbd0e61dd	-0.0347613
227	0x3eca3a46	0.39497584
228	0xbe5d6ab9	-0.21622743
229	0xbeaade33	-0.3337265
230	0x3e6976a0	0.22799158
231	0x3ef31010	0.47473192
232	0xbdd6f871	-0.10496605
233	0xbef17347	-0.47158262
234	0x3e8a2dc5	0.26988044
235	0x3e7766d9	0.24160327
236	0x3e9ff42a	0.3124097
237	0xbe8674b2	-0.26260906
238	0xbdf8bbd6	-0.12145202
239	0xbeb7a05a	-0.35864526
240	0x3e22659c	0.15859073
241	0x3e966b86	0.2937891
242	0x3eb6fbcd	0.35738984
243	0x3e28fc7b	0.16502564
244	0x3d623f0e	0.055235915
245	0xbe703741	-0.23458578
246	0xbec1b183	-0.37830743
247	0xbebd5679	-0.36980036
248	0x3e2665bc	0.16249746
249	0x3e33ee91	0.17571475
250	0xbeaee0ef	-0.34155986
251	0xbece795f	-0.40326974
252	0x3e273fd5	0.16332944
253	0xbe8e3068	-0.27771306
254	0x3d03f011	0.032211367
255	0x3ede8474	0.4346043

bias_ih_l0 f4 [100]
0	0x3ec41678	0.38298392
1	0x3ed5be13	0.41746578
2	0x3e20e18b	0.15711038
3	0x3ed52a57	0.41633865
4	0x3e11e511	0.14247538
5	0x3ec70770	0.38872862
6	0x3e7f7c3a	0.24949732
7	0x3ead85bd	0.33891097
8	0x3ecee8a6	0.40411872
9	0x3d9ab8b2	0.07554759
10	0x3d54b176	0.051927052
11	0x3e5920cb	0.21203916
12	0x3e1c2c2c	0.15251225
13	0x3e83220a	0.25611907
14	0x3e84a3a0	0.25906086
15	0x3ee57442	0.4481526
16	0x3ea08887	0.31354162
17	0x3ed53078	0.4163854
18	0x3e77158c	0.24129313
19	0x3e8b9eb5	0.2726952
20	0x3e453321	0.19257785
21	0x3e67b915	0.22629197
22	0x3eb0b24f	0.3451104
23	0x3db13085	0.086518325
24	0x3ed6740e	0.41885418
25	0xba4c5c49	-0.0007795734
26	0xbd6cf84a	-0.057853974
27	0x3bd80cff	0.006593346
28	0xbdb7c71e	-0.089735255
29	0x3d67a951	0.056557957
30	0x3e928dc6	0.2862379
31	0x3eb1b5ad	0.3470892
32	0xbdcf67c2	-0.10127212
33	0x3e911d78	0.28342795
34	0x3d8cb1c3	0.06869843
35	0xbd0bd8a8	-0.034142166
36	0x3c85c98f	0.016331462
37	0x3d35e162	0.044404395
38	0xbe270e26	-0.16313991
39	0xbe4167e5	-0.18887289
40	0xbda5fe30	-0.08105123
41	0xbe7db362	-0.2477546
42	0x3e8d5fb9	0.27612093
43	0x3d22a5e2	0.03970898
44	0xbe7f7d38	-0.24950111
45	0x3c25394d	0.010084462
46	0xbe9bf24b	-0.30458292
47	0x3e5f7405	0.21821602
48	0xbd92599a	-0.071459964
49	0xbe191a25	-0.1495138
50	0xbe819754	-0.25310767
51	0xbe5bcd8d	-0.2146513
52	0x3e470f36	0.19439396
53	0xbe1e1603	-0.15438084
54	0xbe4ecd41	-0.20195486
55	0x3e5a4967	0.21317063
56	0x3e94d797	0.29070732
57	0xbd7afa89	-0.061274085
58	0xbe843683	-0.2582284
59	0x3e990052	0.29883057
60	0x3dd80601	0.1054802
61	0x3e0c1c0b	0.13682573
62	0xbeda9b0f	-0.42696425
63	0xbe8d4f67	-0.27599642
64	0xbe91d079	-0.28479365
65	0x3e9244ac	0.28568017
66	0x3e725345	0.23664577
67	0x3dcc8491	0.099862225
68	0x3eb83dd7	0.3598468
69	0x3d9ed6e2	0.077558294
70	0xbe29b8e9	-0.16574444
71	0xbe5d3225	-0.2160116
72	0xbe637e94	-0.22216254
73	0x3d632a6b	0.055460375
74	0x3e69c553	0.2282918
75	0x3ef2b4b0	0.4740348
76	0x3e31fea7	0.17382298
77	0x3e6a93c5	0.22907932
78	0x3ee3b8c0	0.4447689
79	0x3ed85d0e	0.42258495
80	0x3edc2181	0.4299431
81	0x3eaea865	0.3411285
82	0x3ef1eec0	0.47252464
83	0x3ed197a3	0.40936002
84	0x3ee5c1ff	0.4487457
85	0x3dc8e6a9	0.0980962
86	0x3e67d562	0.22639993
87	0x3ef0868f	0.4697766
88	0x3e8a8c1b	0.27060017
89	0x3e724936	0.2366074
90	0x3e9f5488	0.3111918
91	0x3ea93de1	0.33055022
92	0x3eccad09	0.39975765
93	0x3e8238b0	0.25433874
94	0x3dfb8f1e	0.12283157
95	0x3ed46288	0.41481423
96	0x3df6abf1	0.12044514
97	0x3eb7bf47	0.3588812
98	0x3e917424	0.2840892
99	0x3ebc64e8	0.36795735

bias_hh_l0 f4 [100]
0	0x3e801156	0.25013226
1	0x3ef82147	0.4846289
2	0x3ec567be	0.38555712
3	0x3e89930b	0.26869997
4	0x3e212dbb	0.15740101
5	0x3e6950df	0.22784756
6	0x3e82b8f8	0.25531745
7	0x3eb8a0c8	0.36060166
8	0x3ecb8e4a	0.39756995
9	0x3dbc95cd	0.0920826
10	0x3e9f1c8b	0.31076464
11	0x3e72e99d	0.23721929
12	0x3e080de6	0.13286552
13	0x3df8900f	0.12136852
14	0x3f08a726	0.5338005
15	0x3ed1e36e	0.40993828
16	0x3ed9ffef	0.42578074
17	0x3eab0984	0.33405697
18	0x3e8bf2d1	0.27333692
19	0x3ead4668	0.33842778
20	0x3e8fbf16	0.28075475
21	0x3e9853a3	0.2975131
22	0x3e20f738	0.15719306
23	0x3ebc8f35	0.36828008
24	0x3dea24cd	0.114328004
25	0xbddab16e	-0.10678373
26	0x3b901ac2	0.004397721
27	0xbe0781ac	-0.1323306
28	0x3cc7f615	0.024409333
29	0x3e4d4d4c	0.20049018
30	0x3e345078	0.17608821
31	0x3e821fa1	0.25414756
32	0x3de300c8	0.110841334
33	0x3dffe979	0.12495703
34	0x3cf2b9d1	0.02962962
35	0x3d676723	0.056494843
36	0x3d455e50	0.048185647
37	0x3d536893	0.0516134
38	0xbe31ed1b	-0.17375605
39	0xbeb0cdcc	-0.3453201
40	0x3e1daaef	0.15397237
41	0xbebc73b0	-0.36807013
42	0x3e095b38	0.13413703
43	0x3e3edad8	0.1863817
44	0xbda24bb4	-0.079245955
45	0x3d3b377d	0.045707215
46	0xbcc077b1	-0.023494573
47	0xbd9cb335	-0.076513685
48	0x3bec4030	0.0072098
49	0xbe921856	-0.28534192
50	0xbe4e963a	-0.20174494
51	0x3d55d42b	0.052204292
52	0x3e4a1d3d	0.19737716
53	0xbda0c760	-0.07850528
54	0xbe719d81	-0.23595239
55	0x3e9696e0	0.29411983
56	0x3e106dc3	0.14104371
57	0x3e141c9e	0.14464042
58	0xbd0a4663	-0.033758532
59	0x3e968cc8	0.29404283
60	0x3e8b50aa	0.2720998
61	0xbdab4f06	-0.08364682
62	0xbe4a7400	-0.19770813
63	0x3ccedf37	0.025252922
64	0x3dc1a9ef	0.094562404
65	0x3da101d1	0.078616746
66	0xbda89057	-0.08230656
67	0x3e2eb499	0.1706108
68	0x3e933638	0.28752303
69	0xbdf26840	-0.1183629
70	0xbcb10586	-0.02160908
71	0x3d691adc	0.05691038
72	0xbe1a74e8	-0.15083659
73	0x3bcbad61	0.0062157367
74	0xbd256638	-0.040380687
75	0x3e8572e0	0.26064205
76	0x3ed54464	0.4165374
77	0x3ec2073a	0.37896138
78	0x3ede9dd9	0.43479803
79	0x3e913dc5	0.2836744
80	0x3e4bf905	0.19919212
81	0x3e872a44	0.26399434
82	0x3ef432c0	0.4769497
83	0x3eabd8d2	0.33563858
84	0x3ecad5df	0.39616296
85	0x3e37a0cd	0.17932434
86	0x3ecca36e	0.39968437
87	0x3e0a9aa6	0.13535556
88	0x3e80e45b	0.2517422
89	0x3e9c4537	0.30521557
90	0x3eab0b48	0.33407044
91	0x3e9c79b8	0.30561614
92	0x3ed1b5bf	0.40958974
93	0x3e8e9c93	0.27853832
94	0x3ee975ad	0.45597592
95	0x3e7482ee	0.2387807
96	0x3e188c5c	0.14897293
97	0x3df64ada	0.120259956
98	0x3e93be3f	0.28856084
99	0x3e8605d3	0.2617632

weight_ih_l0_reverse f4 [100, 50]
0	0x3dbb9632	0.09159507
1	0x3e83faa9	0.25777176
2	0x3e25a51d	0.16176267
3	0xbe1cd1fe	-0.1531448
4	0x3d87cbfd	0.066307046
5	0x3da31f9f	0.079650156
6	0xbe149511	-0.1450999
7	0xbdee2ad4	-0.116292626
8	0xbd0002c2	-0.03125263
9	0x3d984ef0	0.07436931
10	0xbe3fd6ac	-0.18734235
11	0xbdad4cc6	-0.08461909
12	0xbd0c7a4e	-0.034296326
13	0xbd0e2318	-0.034701437
14	0x3e04e687	0.12978564
15	0x3ddb554b	0.10709628
16	0xbd6e9cfd	-0.058255184
17	0xbdb91a4d	-0.090382196
18	0xbdd2239a	-0.10260697
19	0xbcc93c1e	-0.024564799
20	0xbe5bb3de	-0.21455333
21	0xbd4e694c	-0.050393388
22	0x3e0efb5c	0.13963073
23	0x3df44564	0.11927298
24	0x3d1c43ae	0.038150482
25	0x3e33f28a	0.1757299
26	0xbd745c2e	-0.059658222
27	0x3e59d404	0.21272284
28	0xbe257e4a	-0.16161457
29	0xbd893fe0	-0.06701636
30	0x3e2b202c	0.16711491
31	0xbd1eb7d0	-0.038749516
32	0xbdce6133	-0.10077133
33	0x3d017c6c	0.0316128
34	0xbe80abb2	-0.25130993
35	0xbdd18b29	-0.10231621
36	0xbe337920	-0.17526674
37	0xbd4b609a	-0.049652673
38	0x3d9fba1e	0.07799171
39	0x3e4e7667	0.20162354
40	0x3e3a04d5	0.18165906
41	0xbdaf31f9	-0.085544534
42	0xbcfd5d1a	-0.030928183
43	0xbba5708a	-0.005048816
44	0x3e8cf9fc	0.27534473
45	0x3e0c72f6	0.13715729
46	0x3d9f209c	0.077698916
47	0x3c13faa6	0.009031927
48	0x3e0cb805	0.13742073
49	0x3da4408c	0.08020124
50	0x3d14fc0c	0.036373183
51	0x3da35b78	0.07976431
52	0x3e01a032	0.12658766
53	0x3e45ea3a	0.19327632
54	0xbe72ca3d	-0.2370996
55	0x3d471a49	0.04860905
56	0xbe7c568c	-0.2464239
57	0xbe34248f	-0.17592071
58	0xbd391e5a	-0.04519496
59	0xbe03acd7	-0.12858902
60	0xbdfb7801	-0.12278748
61	0xbe67a6e1	-0.22622253
62	0xbc4b8e6d	-0.012424094
63	0x3eaed7c1	0.34148982
64	0x3e40016f	0.18750547
65	0xbe9a43e9	-0.30129936
66	0xbea129cc	-0.314772
67	0x3bd4ee65	0.0064981454
68	0x3db7aaa6	0.089680955
69	0xbe3dc0f4	-0.18530637
70	0xbe260d36	-0.16215977
71	0xbe0ddb5c	-0.1385321
72	0x3e53f8ee	0.20700428
73	0xbe0ee16f	-0.13953184
74	0x3d8e6f24	0.06954792
75	0x3e9101fb	0.28321823
76	0x3d935633	0.071941756
77	0xbdb82b5a	-0.08992644
78	0x3db34e38	0.087551534
79	0xbcb28410	-0.021791488
80	0xbc35264f	-0.011056497
81	0x3cf99d3b	0.030470481
82	0xbe643d79	-0.22289075
83	0xbd62493e	-0.05524563
84	0xbda14856	-0.07875125
85	0x3dbfca07	0.093647055
86	0x3d4e7ac2	0.05041004
87	0x3e237797	0.15963589
88	0xbdb2a501	-0.08722878
89	0xbc570940	-0.013124764
90	0xbe86fbbc	-0.26363933
91	0xbe8206be	-0.2539577
92	0x3d058cc1	0.032604937
93	0xbe974030	-0.2954116
94	0xbe297e7b	-0.16552155
95	0xbd7323fd	-0.059360493
96	0x3e0bbde0	0.1364665
97	0xbddaf9b0	-0.10692155
98	0xbe4fa3c8	-0.20277321
99	0xbd5ed2d0	-0.054400265
100	0xbc0a176f	-0.008428439
101	0xbc9b6d5a	-0.018973041
102	0xbe832876	-0.25616807
103	0xbdd24d4d	-0.1026865
104	0x3c7ff233	0.01562171
105	0x3e272b7f	0.16325186
106	0xba9c0030	-0.0011901911
107	0x3db0391a	0.08604641
108	0x3bab8b21	0.0052350913
109	0xbb331a0a	-0.0027328753
110	0xbd758f62	-0.059951194
111	0xbe698a8f	-0.22806762
112	0xbd7112da	-0.05885587
113	0xbcbf3c1a	-0.023344088
114	0x3e354210	0.17700982
115	0xbd939249	-0.07205636
116	0x3e10c084	0.14135939
117	0x3e9afc2f	0.30270526
118	0xbe8617a9	-0.26189926
119	0x3d9c9964	0.076464444
120	0x3dcd1692	0.100140706
121	0xbe5ecd4a	-0.21757999
122	0x3c943d54	0.01809565
123	0xbe901616	-0.2814185
124	0x3e31f3c6	0.17378148
125	0xbd40f803	-0.047111522
126	0xbe194df8	-0.14971149
127	0x3cc09114	0.023506679
128	0xbd9c822e	-0.07642017
129	0xbe2fb310	-0.1715815
130	0x3e2c26e6	0.16811714
131	0xbe19bc14	-0.15013152
132	0xbd9558ac	-0.072923034
133	0x3e28ab9a	0.16471711
134	0xbd2bb2c9	-0.04191855
135	0x3de30cf1	0.11086453
136	0xbdc9b524	-0.09849003
137	0xbe30289d	-0.17202993
138	0xbe07ac57	-0.13249336
139	0xbe0d29c4	-0.13785464
140	0xbd8ef0ec	-0.06979546
141	0xbda56af2	-0.08077039
142	0x3e029f03	0.1275597
143	0x3c3d3182	0.011547448
144	0xbdec1d3d	-0.11529014
145	0xbe14eef7	-0.14544283
146	0x3de25b15	0.11052529
147	0x3cc90cd5	0.024542252
148	0x3e9b9aaa	0.30391437
149	0xbced17b6	-0.02894197
150	0x3d97c7ec	0.07411179
151	0x3e875ad1	0.26436475
152	0xbe904b9c	-0.28182685
153	0x3dec25c1	0.115306385
154	0xbdee9955	-0.116503395
155	0x3d447fd1	0.047973458
156	0xbdd5756b	-0.10422786
157	0xbc2b82d0	-0.0104682
158	0x3d59213a	0.053010203
159	0x3e17d5fe	0.14827725
160	0x3d2f83ec	0.04285042
161	0xbce2a1d0	-0.027665049
162	0x3d856739	0.06513829
163	0xbcf16194	-0.029465474
164	0xbe189dc8	-0.14903939
165	0x3d0e23f7	0.034702267
166	0xbde02b09	-0.10945708
167	0xba980d8e	-0.0011600719
168	0xbe62084e	-0.2207348
169	0xbe5cab2c	-0.21549672
170	0x3e176dc6	0.14787969
171	0xbd361be6	-0.0444602
172	0x3dddeda4	0.10836342
173	0x3d050d6f	0.032483514
174	0xbe0323d9	-0.12806644
175	0x3e7712e1	0.24128295
176	0xbdb29603	-0.08720019
177	0x3d80eeef	0.06295573
178	0x3e7fbb25	0.24973734
179	0xbce4bce0	-0.027922094
180	0x3e405a18	0.18784368
181	0xbe046b9a	-0.12931672
182	0xbcd5cb41	-0.026097896
183	0xbe86e779	-0.26348475
184	0x3d9ef0a2	0.07760741
185	0xbe11a880	-0.14224434
186	0xbd127eed	-0.035765577
187	0xbd7c0ff1	-0.06153864
188	0x3e2c65c4	0.16835696
189	0x3e992dd4	0.29917777
190	0x3e4816a0	0.19539881
191	0x3cddeed3	0.02709142
192	0x3e8573ea	0.26064998
193	0x3e1ce7d7	0.15322815
194	0xbdc5a21d	-0.09650061
195	0xbcad3987	-0.021145595
196	0xbe62e062	-0.22155908
197	0xbe74e0dd	-0.23913904
198	0xbde3efc0	-0.11129713
199	0x3e195e27	0.14977323
200	0xbdaec55f	-0.08533739
201	0x3d5964bd	0.053074587
202	0x3d464d46	0.048413537
203	0x3d86f234	0.06589165
204	0xbdc13616	-0.09434144
205	0xbe0788da	-0.13235798
206	0xbc7bde0b	-0.015372763
207	0x3d9846c6	0.07435374
208	0xbdfc41ab	-0.12317213
209	0x3ea2451d	0.31693354
210	0xbaf7d561	-0.0018908196
211	0xbe442543	-0.19154839
212	0xbe98c772	-0.29839665
213	0x3cfda864	0.030964084
214	0xbc185059	-0.0092965
215	0x3d544870	0.051826894
216	0x3e5a616e	0.21326229
217	0x3da3b56b	0.07993587
218	0xbca97f6e	-0.020690646
219	0xbdd605fc	-0.1045036
220	0x3d912188	0.07086474
221	0x3eb4c973	0.35309944
222	0xbd23f865	-0.04003181
223	0x3e97b0e3	0.2962714
224	0x3d0a3adb	0.033747535
225	0x3dac3f29	0.08410484
226	0x3dc2a490	0.09504044
227	0xbdce7e8c	-0.10082731
228	0x3d145134	0.036210254
229	0x3e3e4ab9	0.18583192
230	0x3e59176b	0.2120034
231	0x3ca563ed	0.02018925
232	0x3efd0809	0.49420193
233	0xbe5ff659	-0.21871318
234	0xbdbb49d0	-0.09144938
235	0x3e9fcbe5	0.31210247
236	0xbdb939a7	-0.090441994
237	0x3dc1a4dc	0.094552726
238	0xbc34a6de	-0.011026112
239	0x3d3f79a7	0.046746876
240	0xbe890025	-0.26757923
241	0x3e4970f5	0.19671996
242	0x3d94ccbd	0.07265613
243	0xbe6ae254	-0.229379
244	0x3e8b9b1e	0.27266783
245	0x3d861235	0.065464415
246	0x3e196729	0.14980759
247	0x3d28fe33	0.04125805
248	0xbd8e8b61	-0.06960178
249	0x3e1af9e3	0.15134387
250	0xbdcf0606	-0.10108571
251	0x3d0fbbad	0.03509109
252	0xbd83cdbd	-0.06435726
253	0x3b1fc33c	0.0024377843
254	0xbe06b4a8	-0.13154852
255	0xbe812ec4	-0.25230992

weight_hh_l0_reverse f4 [100, 25]
0	0xbe96c493	-0.2944685
1	0x3ec8fcb2	0.3925529
2	0xbe6d7a9d	-0.23191305
3	0x3ec88ee6	0.39171523
4	0x3d4cc660	0.049993873
5	0xbd108cfa	-0.035290696
6	0xbeac30aa	-0.33630878
7	0xbe759998	-0.23984373
8	0xbe4ba261	-0.19886161
9	0xbe70a9f8	-0.23502338
10	0x3edae80e	0.4275517
11	0xbea4e6aa	-0.32207233
12	0x3edea9f9	0.43489054
13	0x3d9288fe	0.071550354
14	0xbe4509b9	-0.1924199
15	0x3e5ee6e9	0.21767773
16	0x3dc9b27a	0.09848495
17	0xbda8a1dc	-0.08233997
18	0xbe66cb83	-0.22538571
19	0x3e16222e	0.14661476
20	0xbce40447	-0.02783407
21	0xbcede7c5	-0.02904118
22	0xbea7cae4	-0.3277198
23	0x3e4bb47a	0.19893065
24	0x3e3f20fe	0.1866493
25	0xbd817c88	-0.063225806
26	0x3e9dafb3	0.3079811
27	0xbe93ed50	-0.28891993
28	0x3e86c2ec	0.2632059
29	0x3e83e2b6	0.25758904
30	0x3e42571e	0.18978545
31	0xbe13f30c	-0.14448184
32	0xbe9a7dc2	-0.3017407
33	0xbe98f1d4	-0.29872
34	0xbd67b0b2	-0.056564994
35	0x3e9e58c9	0.30927113
36	0xbd948c69	-0.072533436
37	0x3e5a5842	0.2132273
38	0xbc814b74	-0.01578305
39	0x3cbc2c98	0.022970483
40	0x3e6b99e2	0.2300792
41	0x3ebd78a1	0.37006095
42	0x3dc72e1c	0.097255915
43	0xbded257c	-0.11579415
44	0xbd96696b	-0.07344326
45	0xbdfce347	-0.12348037
46	0x3d1aab10	0.037760794
47	0xbbde5454	-0.006784955
48	0x3e165bae	0.1468341
49	0xbe331592	-0.17488697
50	0xbe8cb81b	-0.2748421
51	0x3e29752c	0.16548604
52	0xbd54b592	-0.05193097
53	0x3e1368a7	0.1439539
54	0x3eab2566	0.3342697
55	0xbc6dc390	-0.014511958
56	0xbec5eb6e	-0.3865618
57	0xbdf99e36	-0.121883795
58	0xbe10fd64	-0.14159161
59	0xbe964721	-0.29351142
60	0x3d854fd0	0.06509364
61	0xbdc69d90	-0.096980214
62	0x3e62101a	0.22076455
63	0x3e0bb5d0	0.13643575
64	0xbe4ebcbb	-0.20189182
65	0x3e6d2390	0.23158097
66	0x3e404e11	0.1877978
67	0xbd9a40e0	-0.07531905
68	0xbe86a1fb	-0.26295456
69	0x3ea4e652	0.3220697
70	0xbe5d175b	-0.2159094
71	0x3e209ee2	0.15685609
72	0xbe30edb3	-0.17278175
73	0x3e29a1c5	0.16565616
74	0x3de3a463	0.11115339
75	0xbe97ae97	-0.2962539
76	0x3e814a72	0.2525211
77	0xbee1ed50	-0.44126368
78	0x3eb83233	0.359758
79	0x3e11dd37	0.14244543
80	0xbd90927e	-0.07059191
81	0xbdc64853	-0.096817635
82	0xbdc0d2a3	-0.09415176
83	0xbe760a0f	-0.24027275
84	0xbed4c417	-0.41555855
85	0x3e5f3573	0.21797733
86	0xbed57397	-0.4168975
87	0x3e193928	0.1496321
88	0x3e0d51fb	0.13800804
89	0xbe86a5c2	-0.26298338
90	0x3e445ded	0.19176455
91	0x3e630ab4	0.22172052
92	0xbcf916d6	-0.030406397
93	0xbea8c5b5	-0.32963338
94	0x3eb56c3d	0.35434142
95	0x3bb0b001	0.005392075
96	0x3d0e703e	0.03477501
97	0xbee5098e	-0.44733852
98	0x3eac55e2	0.33659273
99	0xbce7f59f	-0.028315363
100	0xbe5ae8ac	-0.2137782
101	0x3e744a7f	0.23856543
102	0xbd5e9a7b	-0.054346543
103	0x3e8709df	0.2637472
104	0x3eb38d5e	0.35068792
105	0xbdd16a81	-0.10225392
106	0x3e15b54e	0.14619943
107	0xbe543560	-0.20723486
108	0x3c7805bf	0.015138089
109	0xbc8849d5	-0.016636768
110	0xbb87ed14	-0.004148135
111	0xbec445ba	-0.38334447
112	0x3d1217f7	0.035667386
113	0x3e62a7e3	0.22134356
114	0xbdc44cd9	-0.0958497
115	0x3d62b37d	0.055346955
116	0x3de0775a	0.109602645
117	0xbd3cac26	-0.04606261
118	0x3cdff694	0.027339257
119	0x3e81bb9a	0.2533844
120	0xbe001669	-0.12508549
121	0x3ea46088	0.32104897
122	0xbe7553bb	-0.23957722
123	0x3e4d9982	0.2007809
124	0xbe0835d0	-0.13301778
125	0xbef02a28	-0.46907163
126	0x3dc98b0f	0.098409764
127	0xbea2c4f4	-0.31790888
128	0x3e8ce8f3	0.27521476
129	0x3e6a2803	0.22866826
130	0x3e8424c1	0.2580929
131	0xbcbab91d	-0.022793347
132	0xbea43b9d	-0.3207673
133	0xbdf34e9e	-0.118802294
134	0xbec28162	-0.37989336
135	0x3ee83f74	0.4536091
136	0xbedf92c4	-0.4366666
137	0x3dd976f5	0.106183924
138	0xbda851c4	-0.082187206
139	0xbe582058	-0.21106088
140	0x3e7280ff	0.2368202
141	0x3ed37b35	0.41304937
142	0xbed3b814	-0.41351378
143	0xbe919ae4	-0.28438485
144	0x3d919ae5	0.07109622
145	0xbe9ccfd0	-0.30627298
146	0x3e83dba0	0.25753498
147	0xbed82c98	-0.42221522
148	0x3eb65c9f	0.3561754
149	0x3dddd580	0.108317375
150	0xbe703ea0	-0.2346139
151	0x3d226b88	0.03965333
152	0xbe84dec5	-0.2595121
153	0x3dfb4acd	0.122701265
154	0x3e407efa	0.18798438
155	0xbe05685b	-0.1302809
156	0xbe016de8	-0.12639582
157	0xbe90131d	-0.28139582
158	0xbd43dad1	-0.0478161
159	0xbda3fb2c	-0.080068916
160	0x3e85ab75	0.26107374
161	0xbe37a735	-0.17934878
162	0x3d895454	0.067055374
163	0x3e983c71	0.29733613
164	0x3d3d24f4	0.04617782
165	0x3c9246b6	0.017855983
166	0x3ed84ec5	0.42247596
167	0xbde5229b	-0.11188241
168	0xbde80ab3	-0.11330166
169	0x3e1eb4ea	0.154987
170	0xbe6b85cc	-0.23000258
171	0xbca29085	-0.019844303
172	0xbe179ae0	-0.14805174
173	0x3d9302cc	0.07178268
174	0xbdd6b185	-0.10483078
175	0xbebfb895	-0.37445512
176	0x3ee0192f	0.43769214
177	0xbed5d82e	-0.41766495
178	0x3e42acf1	0.19011284
179	0x3e42464b	0.18972127
180	0xbd56aa93	-0.052408766
181	0xbe232993	-0.15933828
182	0xbe953aa9	-0.29146317
183	0xbdfd17ae	-0.12358032
184	0xbda3deec	-0.08001503
185	0x3e9d541d	0.30728236
186	0xbead58b6	-0.33856744
187	0x3ecefa8e	0.40425533
188	0x3e676658	0.22597635
189	0xbe5d7360	-0.21626043
190	0x3e628f42	0.22124961
191	0x3ebc73d4	0.3680712
192	0xbcad8c72	-0.021185134
193	0xbe234b87	-0.1594678
194	0xbc8e9e5e	-0.0174095
195	0xbea341e9	-0.31886223
196	0xbe024ad9	-0.12723865
197	0xbd48d7c1	-0.049033884
198	0x3eb48aea	0.35262233
199	0x3e387fd3	0.18017511
200	0xbe5cb24c	-0.2155239
201	0x3e8bb80b	0.2728885
202	0xbf002074	-0.5004952
203	0x3eec24dd	0.46121874
204	0x3ee5bb44	0.44869435
205	0xbd338a8b	-0.043833297
206	0xbe9978c3	-0.29974946
207	0xbdece262	-0.115666166
208	0xbe19ea4f	-0.15030788
209	0xbe56778c	-0.20944041
210	0x3ea8e919	0.3299034
211	0xbe0efa2a	-0.13962618
212	0x3df6fc99	0.12059898
213	0xbe04262e	-0.1290519
214	0xbe178af6	-0.14799103
215	0x3e32aae9	0.1744801
216	0x3edc8a04	0.43074048
217	0xbebfeee8	-0.37486959
218	0xbe9ee178	-0.31031394
219	0x3df4d77a	0.119551614
220	0xbedae8bd	-0.4275569
221	0x3e5e54b4	0.21711999
222	0xbea039ea	-0.31294185
223	0x3e743672	0.23848894
224	0x3e8bb29d	0.2728471
225	0xbdbee5ed	-0.093211986
226	0x3e26c10f	0.16284584
227	0xbe80cc26	-0.25155753
228	0x3e43e87f	0.19131659
229	0x3e94aee5	0.29039684
230	0x3e565c73	0.20933704
231	0xbeb415b3	-0.35172805
232	0xbee6e931	-0.45099786
233	0xbdb966b1	-0.0905279
234	0xbe1800cd	-0.14844055
235	0x3eb85ad9	0.3600681
236	0xbeb2c750	-0.34917688
237	0x3e861e8d	0.26195183
238	0x3bc8c8f0	0.0061274692
239	0xbe1b79e9	-0.15183224
240	0x3de673ef	0.11252581
241	0x3e419e98	0.18908155
242	0x3d5a0356	0.053225838
243	0xbe849fd9	-0.25903204
244	0x3e211815	0.15731843
245	0xbee474c1	-0.44620326
246	0x3e681976	0.22665963
247	0xbeecc174	-0.46241343
248	0x3ccf8d0b	0.02533581
249	0x3e777190	0.24164414
250	0xbe88c159	-0.26710013
251	0x3dd98d17	0.10622614
252	0xbe789a53	-0.2427762
253	0x3e952c43	0.29135332
254	0x3e00b2dd	0.12568231
255	0x3ea9abd0	0.33138895

bias_ih_l0_reverse f4 [100]
0	0x3dccfdaf	0.10009324
1	0x3e9d3fab	0.30712637
2	0x3dfa3783	0.12217619
3	0x3ed310cb	0.4122375
4	0x3ea502d5	0.32228723
5	0x3e0d4632	0.13796309
6	0x3e84fe15	0.259751
7	0x3dee3d70	0.11632812
8	0x3eb31bc0	0.3498211
9	0x3ea84674	0.3286625
10	0x3e90f90f	0.28315017
11	0x3e7b3b5b	0.24534361
12	0x3eb2a02a	0.3488782
13	0x3ea0e3ee	0.31423897
14	0x3ea91e7b	0.33031067
15	0x3df80c5e	0.12111734
16	0x3e716436	0.23573384
17	0x3e94d62e	0.29069656
18	0x3e607ed5	0.21923383
19	0x3e66ede4	0.22551686
20	0x3dfcd86e	0.12345968
21	0x3e853f11	0.26024678
22	0x3e69c332	0.22828367
23	0xbc6efdb2	-0.014586853
24	0x3e643d55	0.22289021
25	0x3ea034fc	0.31290424
26	0x3deab6b0	0.11460626
27	0x3e69528f	0.227854
28	0xbdc52c88	-0.09627634
29	0x3e637f70	0.22216582
30	0xbd454df3	-0.04817004
31	0xbdc67edf	-0.096921675
32	0x3e6182ef	0.22022603
33	0xbe9596e6	-0.2921669
34	0x3c8da58b	0.017290851
35	0x3d075de4	0.033048525
36	0xbda238db	-0.079210006
37	0xbdae66cd	-0.085157014
38	0xbcadcf7a	-0.021217097
39	0xbd6a7c6c	-0.057247564
40	0xbe379646	-0.17928419
41	0xbcf9453d	-0.030428523
42	0xbdbc9a16	-0.09209077
43	0x3d3b73ab	0.045764606
44	0xbe134864	-0.14383084
45	0xbc7a0afc	-0.015261408
46	0xbe04aec8	-0.12957299
47	0x3e1c4437	0.15260397
48	0x3dad81c1	0.08472014
49	0x3d9b5679	0.07584853
50	0xbdfe1b38	-0.12407535
51	0x3e758e2e	0.23980018
52	0xbe9feaea	-0.31233913
53	0x3d973e77	0.07384961
54	0x3e8b6c49	0.27231053
55	0xbd147c0d	-0.036251117
56	0xbda35304	-0.07974818
57	0xbdf2d6f3	-0.118574046
58	0xbd9dd4b0	-0.077065825
59	0xbe081861	-0.1329055
60	0x3e705bfb	0.23472588
61	0xbe894dfe	-0.26817316
62	0x3e9540ba	0.29150945
63	0x3e8b479b	0.27203068
64	0xbe3ec87a	-0.18631163
65	0x3e24dba7	0.16099416
66	0x3dced103	0.100984596
67	0xbdd23ff8	-0.10266107
68	0xbccc3715	-0.024928609
69	0x3e6cc0b5	0.23120387
70	0x3c99ec93	0.018789565
71	0x3e335423	0.17512564
72	0x3cd28ed0	0.025702864
73	0x3e3de20b	0.1854326
74	0x3d1ec554	0.038762406
75	0x3eab7930	0.33490896
76	0x3eb4a037	0.35278484
77	0x3e80c9a7	0.2515385
78	0x3eb0c677	0.34526417
79	0x3eaf8b69	0.3428605
80	0x3e7c1991	0.24619128
81	0x3ebf5b3d	0.37374297
82	0x3e88b07a	0.2669714
83	0x3e6c578a	0.23080269
84	0x3e5adb0c	0.21372622
85	0x3de139bf	0.10997342
86	0x3c664a44	0.014055792
87	0x3e6f789a	0.2338585
88	0x3e9df056	0.30847424
89	0x3e98a658	0.2981441
90	0x3e986cdb	0.2977055
91	0x3db61b8f	0.08891975
92	0x3ebfcc5f	0.3746061
93	0x3ebeb3ef	0.37246653
94	0x3e45102d	0.19244452
95	0x3e939775	0.2882649
96	0x3ec75a5a	0.3893612
97	0x3db1e3a2	0.08685996
98	0x3e1fda15	0.15610535
99	0x3ebfacfd	0.37436667

bias_hh_l0_reverse f4 [100]
0	0x3e5a85d4	0.21340114
1	0x3dcfb318	0.10141581
2	0x3e2b8fbb	0.16754048
3	0x3d8ee851	0.069779046
4	0x3e1d157a	0.15340224
5	0x3e30bd3c	0.17259687
6	0x3e90a2ac	0.2824911
7	0x3e793f06	0.24340448
8	0x3e0bc9e1	0.1365123
9	0x3e8a8358	0.27053332
10	0x3e2c95c4	0.16854006
11	0x3d418cd5	0.04725345
12	0x3ea4a7c6	0.3215925
13	0x3e60ffa2	0.21972516
14	0xbc7c6a1f	-0.015406161
15	0x3eaa83a5	0.33303562
16	0x3c310639	0.010804706
17	0x3e5d2ed4	0.21599895
18	0x3ed5bb5f	0.41744515
19	0x3ec41414	0.38296568
20	0x3ce736b2	0.028224323
21	0x3ea1c4c1	0.31595424
22	0x3d4accd6	0.049511753
23	0x3ddec4c8	0.10877377
24	0x3d30304e	0.043014817
25	0xbd49d53b	-0.049275618
26	0x3dd39471	0.10331047
27	0x3e738c58	0.23784006
28	0xbde81725	-0.113325395
29	0x3de9a453	0.114082955
30	0x3d30b908	0.04314521
31	0xbe129e22	-0.14318135
32	0x3e2ebb9c	0.17063755
33	0xbe515dd3	-0.20445947
34	0xbd905c60	-0.07048869
35	0x3e29c6d8	0.16579759
36	0x3e657382	0.22407344
37	0x3e395218	0.18097723
38	0x3d74935e	0.059710853
39	0x3daf6d2d	0.085657455
40	0x3deaa530	0.11457288
41	0xbdadec60	-0.084923506
42	0x39c8f9c2	0.00038333057
43	0x3bff6653	0.0077941804
44	0xbe5bfe52	-0.21483734
45	0x3cf1828d	0.029481197
46	0xbd9ac307	-0.0755673
47	0x3d74e612	0.059789725
48	0x3da64a48	0.08119637
49	0x3e35f3ea	0.17768827
50	0xbd256800	-0.040382385
51	0x3dcb71d5	0.09933821
52	0xbe1cbb7b	-0.15305893
53	0x3dcda9ff	0.1004219
54	0xbcd57ed5	-0.026061455
55	0x3d5298b8	0.051415175
56	0xbe8c60b7	-0.27417538
57	0xbdef4a28	-0.11684066
58	0xbe9ee5e6	-0.31034774
59	0xbe7ae329	-0.24500717
60	0x3e7e0fae	0.24810669
61	0xbe089516	-0.13338122
62	0x3d075764	0.033042327
63	0x3d967957	0.073473625
64	0xbdda0d81	-0.10647107
65	0x3e3fc635	0.18727954
66	0x3e8726f6	0.26396912
67	0xbd62dcc1	-0.05538631
68	0xbd24b74d	-0.04021387
69	0x3e99273b	0.29912743
70	0xbe79ff8d	-0.24413891
71	0x3d83d2d2	0.06436695
72	0xbe44abf3	-0.19206218
73	0x3e213980	0.15744591
74	0x3e2f2d2f	0.1710708
75	0x3df35daf	0.11883103
76	0x3d42d801	0.04756928
77	0x3e05bd05	0.13060386
78	0x3e983949	0.29731205
79	0x3e5fe2fc	0.21863931
80	0x3ec89721	0.39177802
81	0x3dbf5ab6	0.093434736
82	0x3e92a75d	0.28643313
83	0x3eb225fb	0.34794602
84	0x3ebad1df	0.36488244
85	0x3e46b415	0.19404633
86	0x3eb9f8fc	0.36322773
87	0x3e2cce66	0.1687561
88	0x3ee96845	0.45587364
89	0x3e8dc7ad	0.27691403
90	0x3e8b0b08	0.27156854
91	0x3e1452f3	0.14484768
92	0x3ea58463	0.32327566
93	0x3e0c5e61	0.13707878
94	0x3e9ec837	0.31012127
95	0x3e0f817d	0.1401424
96	0x3eba519e	0.36390394
97	0x3e9d75ad	0.30753842
98	0x3d265dfa	0.040616967
99	0x3dc7dab6	0.09758513

weight f4 [13, 50]
0	0xbe39db0c	-0.18149966
1	0x3e99cf46	0.3004095
2	0xbe812bf7	-0.25228855
3	0xbe85792b	-0.26069006
4	0x3dc3e18b	0.09564503
5	0x3e9717d8	0.2951038
6	0xbed2f750	-0.4120431
7	0x3ec79cb7	0.3898675
8	0xbb24731c	-0.0025093025
9	0xbecc0b78	-0.398525
10	0x3c218dd2	0.009860473
11	0x3e985c04	0.29757702
12	0xbe9d8fce	-0.30773777
13	0xbec48f3b	-0.38390526
14	0xbe8d3183	-0.27576837
15	0x3ea01b11	0.3127065
16	0x3eadb8cc	0.3393005
17	0xbea4faed	-0.3222269
18	0x3eb8dca1	0.36105826
19	0x3ed637c5	0.41839424
20	0xbe9dc3f7	-0.30813572
21	0x3ea005bc	0.31254375
22	0xbe9b3eeb	-0.3032144
23	0x3ea3a4f0	0.31961775
24	0x3ed21293	0.41029796
25	0x3d9b5567	0.075846486
26	0x3cebea04	0.02879811
27	0x3ea1d10a	0.31604797
28	0xbea47d05	-0.32126632
29	0x3ead29d2	0.3382097
30	0x3ec5f0a9	0.38660172
31	0xbe981711	-0.29705098
32	0xbe7d0b69	-0.24711384
33	0x3eb74398	0.35793757
34	0xbe9a4b46	-0.30135554
35	0xbedd26e1	-0.43193725
36	0xbe79ec94	-0.24406654
37	0xbea4ccc0	-0.32187462
38	0xbee32996	-0.44367665
39	0x3d990ce6	0.07473163
40	0x3e1138f3	0.1418188
41	0xbe0e6e75	-0.13909324
42	0x3e9c0c90	0.30478334
43	0xbe27e05d	-0.16394182
44	0xbecffc73	-0.4062229
45	0xbe6924fd	-0.22768016
46	0x3ec64309	0.3872302
47	0xbeb07638	-0.34465194
48	0x3ea26aae	0.31722015
49	0xbec0d1ad	-0.3765997
50	0x3ebf5a88	0.37373757
51	0xbee820d7	-0.45337555
52	0xbd04662d	-0.032324005
53	0x3e78233f	0.24232195
54	0xbb968360	-0.004593298
55	0x3e0f29f5	0.13980849
56	0x3e3b21cc	0.18274611
57	0xbcb49003	-0.022041326
58	0xbec7f577	-0.39054462
59	0x3f026392	0.5093318
60	0x3e337690	0.17525697
61	0x3ecdbe87	0.40184423
62	0xbe87eec8	-0.26549363
63	0x3dffd336	0.12491457
64	0xbed619ec	-0.41816652
65	0x3e3e6468	0.1859299
66	0x3f158ea1	0.5842076
67	0x3ec04984	0.37556088
68	0xbd90fec1	-0.070798405
69	0xbf14da9c	-0.5814607
70	0xbd8219e8	-0.063525975
71	0xbe77ac73	-0.24186878
72	0x3ec9ca4b	0.3941215
73	0xbe5f4ba7	-0.21806203
74	0xbe83dfa4	-0.25756562
75	0x3e263351	0.16230513
76	0xbe97bf64	-0.29638207
77	0xbe4b9763	-0.19881968
78	0x3ced1402	0.028940205
79	0x3dd082b6	0.10181181
80	0xbe15f803	-0.1464539
81	0x3e722d58	0.2365011
82	0xbdcfd438	-0.101478994
83	0xbeadec3f	-0.33969304
84	0x3e85f240	0.26161385
85	0x3e9bd2c6	0.30434245
86	0xbe67c4f6	-0.22633728
87	0xbde6c9f6	-0.1126899
88	0x3df01e78	0.117245615
89	0x3de04dd7	0.10952347
90	0xbe041c7a	-0.12901488
91	0xbe372d00	-0.1788826
92	0xbeb4395d	-0.35200015
93	0x3db35a72	0.087574854
94	0xbece7d75	-0.4033009
95	0xbe40666c	-0.18789071
96	0x3eed4dff	0.4634857
97	0x3e1b7a25	0.15183313
98	0xbec48a20	-0.3838663
99	0x3dc43149	0.09579713
100	0x3eda9efc	0.4269942
101	0xbda6e400	-0.08148956
102	0x3ea4d5a9	0.3219426
103	0x3ee23ae6	0.4418556
104	0xbe3056f9	-0.17220677
105	0xbdcb03e4	-0.099128515
106	0x3e42c541	0.19020559
107	0x3ee75a24	0.4518596
108	0x3e2d5d0d	0.16930027
109	0x3ee27d84	0.44236386
110	0x3d595a55	0.053064663
111	0xbe425129	-0.18976273
112	0x3f051cf1	0.51997286
113	0xbe8fff5d	-0.28124514
114	0x3ed02239	0.4065111
115	0x3e244b80	0.16044426
116	0xbe0ef525	-0.13960703
117	0xbe415cef	-0.18883108
118	0xbebf405a	-0.37353784
119	0xbef2e501	-0.4744034
120	0xbe98448f	-0.29739806
121	0x3ed50c41	0.4161091
122	0xbedfa81b	-0.43682942
123	0xbeabc70f	-0.33550307
124	0xbef213fe	-0.47280878
125	0x3c7588c1	0.014986218
126	0x3e9dfc54	0.30856574
127	0x3e1f7597	0.155722
128	0x3e685102	0.22687152
129	0xbea57192	-0.3231321
130	0xbeacf17e	-0.33777994
131	0x3ee08484	0.438511
132	0x3eda1325	0.4259273
133	0x3f0226a3	0.50840205
134	0x3e789399	0.24275054
135	0x3e9683c7	0.29397413
136	0xbeba205f	-0.36352822
137	0x3eabca8c	0.33552969
138	0x3d2a6229	0.04159752
139	0xbe63e0a7	-0.22253667
140	0xbeb26551	-0.34842923
141	0xbea749ec	-0.32673585
142	0xbe3c85dd	-0.1841044
143	0xbe8fc637	-0.28080913
144	0xbeff8b9a	-0.49911195
145	0xbdb8a5fd	-0.09016035
146	0xbec0d5b3	-0.3766304
147	0x3c634e42	0.013873639
148	0xbec97a59	-0.39351156
149	0x3d64353d	0.055714834
150	0x3ef7eb7d	0.4842185
151	0x3ecf16a0	0.4044695
152	0x3eb869e3	0.36018285
153	0xbed738f9	-0.42035654
154	0x3ed9cc5c	0.42538726
155	0x3e78a2a0	0.24280787
156	0x3e427877	0.18991266
157	0x3ecad55c	0.39615905
158	0xbea629fd	-0.3245391
159	0x3e10c2ce	0.14136812
160	0x3d9de843	0.07710316
161	0xbbef739b	-0.0073074824
162	0x3f0885c0	0.53329086
163	0x3e86c618	0.2632301
164	0x3ef1ccb1	0.4722648
165	0xbdbab63d	-0.091167904
166	0x3eb3eeec	0.3514322
167	0x3edefd70	0.43552732
168	0x3dba8edb	0.09109279
169	0xbee435e6	-0.4457237
170	0x3ea9ed76	0.3318898
171	0xbeb0afcc	-0.34509122
172	0xbd1752d3	-0.03694422
173	0x3eda4539	0.42630938
174	0xbe4082e3	-0.1879993
175	0xbdf218b5	-0.11821119
176	0xbe9fba84	-0.31196988
177	0xbe1cf713	-0.15328626
178	0x3eaa1f0c	0.33226812
179	0xbab5a274	-0.0013857619
180	0x3f13b294	0.57694364
181	0x3eb84543	0.35990342
182	0xbeaee3d5	-0.34158197
183	0x3e7b8981	0.24564172
184	0x3d8ca4ae	0.06867348
185	0x3e98b55d	0.2982587
186	0x3e925b9b	0.28585514
187	0xbec2f67b	-0.38078675
188	0xbef1a687	-0.47197363
189	0xbec0ed1e	-0.37680906
190	0x3e453ea6	0.1926218
191	0x3ded9f16	0.11602609
192	0x3e226e6d	0.15862437
193	0xbea4b7f9	-0.3217161
194	0x3e9384d9	0.28812292
195	0x3e45f7b3	0.19332771
196	0xbd95daa2	-0.073170915
197	0xba28f71c	-0.00064455136
198	0xbdab1102	-0.08352853
199	0x3e3780b0	0.17920184
200	0x3e898d8c	0.26865804
201	0xbecd89a2	-0.40144068
202	0x3dcf15bf	0.101115696
203	0xbeaffe33	-0.34373626
204	0x3d44064a	0.04785756
205	0x3c9b87a8	0.018985584
206	0xbd5b628e	-0.053560786
207	0x3eb6904b	0.35656962
208	0x3eab8e0a	0.33506805
209	0x3ea19596	0.31559438
210	0xbec277ee	-0.37982124
211	0xbc16ea41	-0.009211124
212	0x3f00ccba	0.5031239
213	0xbe7466d9	-0.23867358
214	0xbe99bb5b	-0.30025753
215	0xbeb36304	-0.3503648
216	0xbeeadc9e	-0.45871443
217	0x3dd2e754	0.102980286
218	0xbe34515e	-0.17609164
219	0x3ea732de	0.32655996
220	0x3edd979d	0.43279734
221	0x3eb038a6	0.3441822
222	0xbe94c61d	-0.29057398
223	0x3ecbd6b8	0.39812255
224	0x3ea0405a	0.31299096
225	0x3ec30675	0.38090864
226	0x3d8a8c73	0.0676507
227	0xbea77993	-0.3270994
228	0x3ebce236	0.36891335
229	0xbd509e8d	-0.050932456
230	0xbe78f4aa	-0.24312082
231	0x3e25ec96	0.16203532
232	0x3e77e0f7	0.24206911
233	0x3eb0886c	0.34479082
234	0x3ea5299a	0.32258302
235	0xbd672457	-0.05643114
236	0x3eccef18	0.40026164
237	0xbec61b33	-0.38692626
238	0xbecf6854	-0.40509284
239	0x3eb7ea1f	0.35920808
240	0x3ea6212b	0.3244718
241	0xbd81fff0	-0.06347644
242	0x3e5b29e5	0.214027
243	0x3d146f54	0.036238983
244	0xbdd653e6	-0.10465221
245	0x3cf4349e	0.029810246
246	0xbe00a760	-0.12563848
247	0x3ee2ea30	0.44319296
248	0x3e1af96a	0.15134206
249	0xbe2b9b15	-0.16758378
250	0xbe7bbeb7	-0.2458447
251	0xbe92f339	-0.2870119
252	0xbec35701	-0.38152316
253	0x3ea1d137	0.3160493
254	0xbe8dae3c	-0.27671993
255	0xbed1403a	-0.40869313
