hw3/model/neural_crf_pos/model.pt (torch, 552366 bytes, 7 tensors)

weight f4 [2372, 50]
0	0x3fef2497	1.8683041
1	0x3fd53201	1.6655885
2	0x3f4a4033	0.7900421
3	0xc01c5a3f	-2.4430082
4	0x3ebc05f5	0.36723295
5	0xbfc7b4e0	-1.5602074
6	0xbed4d7a5	-0.41570774
7	0xbff9e6ce	-1.9523561
8	0xbeebdb68	-0.4606583
9	0x3fac8864	1.3479123
10	0xbf22fe0e	-0.63668907
11	0xbf8c316b	-1.0952581
12	0xbf8723a6	-1.0557754
13	0xbf494715	-0.7862409
14	0xbf831baa	-1.0242817
15	0x3f7db400	0.99102783
16	0x3ffa495b	1.9553636
17	0xbec1b99d	-0.37836924
18	0xbe7858bb	-0.24252598
19	0x3e88537d	0.26626197
20	0xbf88fe2d	-1.0702568
21	0x3f9db69f	1.2321357
22	0x3ef64145	0.48096672
23	0x3fead9a0	1.8347664
24	0x3f8c1a67	1.0945557
25	0x3fd19f57	1.6376752
26	0x3f0e6df9	0.55636555
27	0x3f938c10	1.1527119
28	0x3d8fdf0e	0.07024966
29	0xbe24a949	-0.16080202
30	0xbf0c77da	-0.5487038
31	0x3f1afb34	0.60539556
32	0xbfad6797	-1.3547238
33	0xbf6e0686	-0.92978704
34	0xbf053b98	-0.5204406
35	0x3ffef3f4	1.9918199
36	0x3c1197f9	0.008886331
37	0xbd94dc86	-0.07268624
38	0x3f21bfe0	0.63183403
39	0xbf1843a7	-0.5947823
40	0xbfe10e77	-1.7582539
41	0x3fad7fee	1.3554666
42	0xbf8ff063	-1.1245235
43	0xbf1b9025	-0.6076682
44	0xbfbac061	-1.4589959
45	0x400b3ac5	2.175462
46	0xbfc33912	-1.5251791
47	0xbdaf5755	-0.08561579
48	0xbf99b554	-1.2008462
49	0xbf03c9c2	-0.51479733
50	0x3e25d486	0.16194353
51	0x3f300975	0.6876443
52	0xbebd51fb	-0.3697661
53	0x3f568054	0.83789563
54	0xbf9114f7	-1.1334523
55	0xbf88afec	-1.0678687
56	0xbfe36c86	-1.7767494
57	0xbe9c8fa3	-0.30578336
58	0x3e72ecb5	0.23723109
59	0x3ec0288d	0.37530938
60	0xbeced154	-0.4039408
61	0x40092bba	2.1432939
62	0xbfbac380	-1.4590912
63	0x3f8e5bc8	1.112176
64	0x3f942bf6	1.1575916
65	0x3f8f9322	1.1216776
66	0x4022228b	2.5333583
67	0x3e8b5ec7	0.27220747
68	0x3f173a2c	0.5907314
69	0xbebecf86	-0.37267703
70	0xbfaf1c34	-1.3680482
71	0x3fba1653	1.4538063
72	0xbefc54a5	-0.4928333
73	0x3f40fffa	0.7539059
74	0xbddd2e35	-0.10799829
75	0x3f4081b4	0.7519791
76	0x3f51aefb	0.81907624
77	0xbf5bb875	-0.85828334
78	0xbff484e6	-1.9103057
79	0xbf7a7143	-0.97829074
80	0xbeb40610	-0.35160875
81	0xbf258ee9	-0.6467119
82	0xbfb048a6	-1.377217
83	0xbf230856	-0.63684595
84	0x3e81a297	0.2531936
85	0x3f306793	0.6890804
86	0x3f5254cf	0.8216066
87	0x3ed086f7	0.4072797
88	0x3f876236	1.0576847
89	0xbee5fa74	-0.44917643
90	0xbfa54430	-1.2911434
91	0x3f725b41	0.9467049
92	0xc0008f9f	-2.008766
93	0xbf5c9cce	-0.86176765
94	0x3f8e7146	1.1128318
95	0x3f463261	0.7742062
96	0xc0336f6e	-2.8036761
97	0x3f549e50	0.83054066
98	0x3eecf459	0.46280172
99	0x3e346850	0.17617917
100	0x3f2acce9	0.6671892
101	0x3f5e193c	0.86757255
102	0x3f674a0b	0.90347356
103	0xbf55abe9	-0.8346544
104	0xbf05d44d	-0.5227707
105	0x3ebe546e	0.3717379
106	0x3b612de4	0.0034359628
107	0xbe723ca7	-0.2365595
108	0x3f2232ba	0.6335865
109	0x3f5f27ef	0.8717031
110	0xbe9c2bc1	-0.30502132
111	0x3dc8fb37	0.098135404
112	0xbfe5a6f8	-1.794158
113	0xbee487e0	-0.44634914
114	0xbf7149ac	-0.9425304
115	0x3f47dc13	0.7807018
116	0x3f8e5297	1.1118954
117	0xbe4415a4	-0.1914888
118	0xbd543b20	-0.0518142
119	0x3e96f5a6	0.2948429
120	0xbed5287d	-0.41632453
121	0x3ee93eaa	0.4555562
122	0xbe80ec31	-0.251802
123	0x3f7fbe6b	0.9989993
124	0x3f4cf969	0.8006807
125	0x3f3e652c	0.74373126
126	0x3f5217aa	0.8206736
127	0x3e17dd4b	0.1483051
128	0x40141c6c	2.3142347
129	0x3f3a1a0a	0.7269598
130	0xbfe8320b	-1.8140272
131	0xbfbb87d7	-1.465083
132	0xbd9bbcb2	-0.0760435
133	0x3fb20ffd	1.3911129
134	0x3e838f69	0.2569535
135	0x3f73681b	0.9508073
136	0x3f42ad31	0.7604552
137	0x3edfa39a	0.43679506
138	0xbfb65f0f	-1.424776
139	0x3f97ac3f	1.184944
140	0xbf25e0a0	-0.64795876
141	0x3fbb1134	1.4614625
142	0xbf81d3d2	-1.0142767
143	0x3f1ceedb	0.61301965
144	0xbfa8f542	-1.3199847
145	0x3fa19c16	1.2625759
146	0x3fa0f677	1.2575215
147	0x3ff08232	1.8789732
148	0xbdd16a47	-0.10225349
149	0x3c1f8d67	0.009738303
150	0xbf482f36	-0.7819704
151	0x3e9512d9	0.29115942
152	0x3e3414e7	0.17586099
153	0x3f359ffe	0.70947254
154	0xbf30293e	-0.6881293
155	0x3fb29e32	1.3954527
156	0xc02e54ef	-2.723934
157	0xbf233acb	-0.63761586
158	0xbf799958	-0.9749961
159	0x3f145d1c	0.57954574
160	0xc00333a3	-2.0500267
161	0x3ef99289	0.4874461
162	0xbe32378a	-0.17403999
163	0xbf10e671	-0.56601626
164	0x3db6a19a	0.08917542
165	0xbf11f92e	-0.57020843
166	0x3ec59b34	0.38594973
167	0xbfa2e630	-1.2726498
168	0xbfb2af7a	-1.3959801
169	0x3fa67ad5	1.3006235
170	0x3f8682e3	1.0508693
171	0x3e50e1bb	0.2039861
172	0xbfe12924	-1.759068
173	0x3f6934da	0.9109627
174	0x3f148351	0.5801287
175	0x40119d99	2.275244
176	0xbd898153	-0.0671412
177	0xbcf1494a	-0.029453892
178	0xbf1a572c	-0.60289264
179	0xbec6a3f5	-0.38796964
180	0xbf9762a7	-1.1826981
181	0xbfe3cff9	-1.7797843
182	0xbf8b514c	-1.0884185
183	0xbf2d2dcf	-0.67648023
184	0xbf3bc068	-0.73340464
185	0xbfa2a2ab	-1.2705892
186	0xc008cf87	-2.1376665
187	0x3ec03efe	0.3754806
188	0x3fa204fa	1.2657769
189	0xbec691bd	-0.38783064
190	0x3f05efa9	0.5231882
191	0x3f7521f1	0.95754915
192	0x3fc734af	1.5562953
193	0xbf6bd0aa	-0.9211527
194	0x3f4029ab	0.7506358
195	0xbe13c674	-0.14431173
196	0xbfb23d89	-1.3925029
197	0x3f1ea6ae	0.61973083
198	0x3e881af4	0.26583064
199	0x3fc5eba0	1.5462532
200	0x3f354f07	0.7082371
201	0x400b305f	2.1748273
202	0xbe9c78a4	-0.30560791
203	0xbf97f859	-1.1872665
204	0xbd32e9e7	-0.043680098
205	0x3f4e31a9	0.80544525
206	0x3f84be8d	1.0370651
207	0x3e473474	0.19453603
208	0xbf155c87	-0.5834431
209	0xbfa06868	-1.2531862
210	0xbf3eccff	-0.7453155
211	0xbec81828	-0.3908093
212	0xbda25eec	-0.07928261
213	0x3e694dcd	0.22783585
214	0xbebf7fa2	-0.37402064
215	0xc005d9bc	-2.0914145
216	0xbe19382b	-0.14962833
217	0x3f632c43	0.88739413
218	0xbfc87dd6	-1.5663402
219	0x3fad75b7	1.3551549
220	0x3d9a7f46	0.07543807
221	0xbea42cbf	-0.3206539
222	0x3f481095	0.781503
223	0x3ff384f1	1.9024945
224	0xbe1ae9c1	-0.15128233
225	0x3ff50f67	1.9145325
226	0x3ecdc4d5	0.40189233
227	0xbfa0e29b	-1.2569155
228	0xbeab2ef3	-0.33434257
229	0xbdabd206	-0.08389668
230	0x3dfadc8f	0.122490995
231	0x3fe04b7b	1.7523035
232	0xbe522b8a	-0.20524421
233	0xbf7811a7	-0.96901935
234	0xc0149323	-2.3214805
235	0xbf93d41a	-1.1549103
236	0xbe749764	-0.23885876
237	0x3eb1d7ee	0.34735054
238	0x3ed90045	0.42383018
239	0x3e8b5976	0.2721669
240	0xbf90cb89	-1.1312114
241	0x3f0b0a3e	0.54312503
242	0xbf3fd74d	-0.749379
243	0x3ec18013	0.37793025
244	0xbf8877d7	-1.0661572
245	0x3e7234f9	0.2365302
246	0xbf13bbca	-0.5770842
247	0x3fda5834	1.7058167
248	0x3f7f7f12	0.9980327
249	0xbf2e7783	-0.6815111
250	0x3f70c6e8	0.94053507
251	0x3f0ae428	0.5425439
252	0x3f1f0655	0.62119037
253	0x3ed08306	0.40724963
254	0x3ebf8122	0.37403208
255	0x3d689767	0.056785014

weight f4 [13, 50]
0	0x3d411c9f	0.047146436
1	0x3d04579e	0.03231012
2	0x3d86171a	0.06547375
3	0xbe83ea84	-0.2576486
4	0xbe12c07b	-0.14331238
5	0xbe5fee41	-0.2186823
6	0xbe7a6dbc	-0.24455923
7	0xbe8e0180	-0.2773552
8	0x3e8e72d5	0.27821985
9	0xbe88d3c8	-0.26724076
10	0xbe112c15	-0.14176972
11	0x3e314d38	0.17314613
12	0xbe046b18	-0.12931478
13	0xbde3a33f	-0.11115121
14	0xbe919a04	-0.28437817
15	0x3e486fad	0.19573851
16	0x3ea5fcd6	0.3241946
17	0xbdc0d9ef	-0.094165675
18	0x3e0d1c47	0.13780318
19	0x3c81ebd2	0.015859518
20	0xbe7b2db3	-0.24529152
21	0x3ddb46a4	0.10706833
22	0xbe869f0a	-0.26293212
23	0x3e601e9b	0.21886675
24	0xbd5cc2ea	-0.053896822
25	0x3e66b034	0.22528154
26	0x3dee51e4	0.11636713
27	0xbe1aaa3c	-0.15104002
28	0x3e211693	0.15731268
29	0xbd8cc888	-0.06874186
30	0xbe378504	-0.17921835
31	0xbe638f16	-0.22222552
32	0x3a7b2a96	0.0009581236
33	0xbdd37819	-0.10325641
34	0xbd704978	-0.058663815
35	0xbccac3b2	-0.024751518
36	0xbe97d3ae	-0.29653686
37	0x3e424c8e	0.18974516
38	0x3e91102d	0.28332654
39	0x3d606951	0.054787938
40	0xbdf30d94	-0.11867824
41	0x3e561a9e	0.20908591
42	0xbe9577a2	-0.29192835
43	0xbb813419	-0.003942978
44	0xbe87baeb	-0.26509795
45	0x3e20b623	0.1569448
46	0xbe4190f7	-0.18902956
47	0x3e60fb81	0.21970941
48	0xbeabbba1	-0.33541587
49	0x3dd379aa	0.1032594
50	0x3dcbf53e	0.099588856
51	0xbea5e29c	-0.32399452
52	0xbd95c4cf	-0.07312929
53	0xbe89a733	-0.26885375
54	0x3e50d641	0.20394231
55	0xbe3b9f1c	-0.18322414
56	0x3d4d4f20	0.050124288
57	0x3e14fd8c	0.14549845
58	0x3e94719a	0.2899292
59	0x3e3ad141	0.18243887
60	0x3e9948b1	0.29938272
61	0xbd992d8f	-0.07479393
62	0x3e2699da	0.16269627
63	0x3d1b0a10	0.037851393
64	0xbe16b6ea	-0.14718214
65	0xbe63e075	-0.22253592
66	0x3dd4c0d0	0.103883386
67	0xbe858f02	-0.2608567
68	0xbd958dee	-0.073024616
69	0xbd56de21	-0.052457932
70	0xbe668b2d	-0.22514029
71	0x3e27949c	0.16365284
72	0xbd697923	-0.05700029
73	0xbb837770	-0.004012041
74	0xbe50cc54	-0.20390445
75	0x3d4e5318	0.050372213
76	0xbe0bfd7d	-0.13670917
77	0x3e41d93c	0.18930525
78	0xbe2b9a95	-0.16758187
79	0x3e8fff11	0.28124288
80	0x3e506f98	0.2035507
81	0x3e33de72	0.17565325
82	0xbe08d0a0	-0.13360834
83	0xbd95ae61	-0.07308651
84	0xba65383d	-0.0008744037
85	0xbc543d1f	-0.0129540255
86	0x3ea6432f	0.32473132
87	0xbe859737	-0.2609193
88	0xbd73d2af	-0.059527095
89	0x3d4cba23	0.0499822
90	0xbe038f70	-0.12847686
91	0x3e865a02	0.26240546
92	0xbe4afb75	-0.19822486
93	0x3d2f7f3d	0.042845953
94	0x3e118e82	0.14214519
95	0xbd5ec63c	-0.05438827
96	0x3e9adc8c	0.3024639
97	0x3d991854	0.07475343
98	0x3eb2d160	0.34925365
99	0x3d737566	0.05943813
100	0x3c708d2f	0.014682098
101	0x3e28be1e	0.16478774
102	0xbe2840d8	-0.16430986
103	0x3e3ad13e	0.18243882
104	0xbe0a70af	-0.13519548
105	0x3e933d0e	0.2875752
106	0x3df7bdc5	0.120967425
107	0x3e196c0a	0.1498262
108	0xbe0e8ce1	-0.13920929
109	0x3c12eded	0.008967859
110	0x3cd4648d	0.025926853
111	0x3de69da6	0.11260538
112	0x3e88b2ce	0.26698917
113	0x3e8f0b94	0.2793852
114	0x3e4f2692	0.20229557
115	0xbe516094	-0.20446998
116	0xbe5eb148	-0.21747315
117	0xbd99fc5f	-0.07518839
118	0x3e9243ec	0.28567445
119	0xbe3727dc	-0.17886299
120	0x3e0a6c71	0.1351793
121	0xbe629185	-0.22125824
122	0xbe5c58ae	-0.21518204
123	0xbe964fd0	-0.29357767
124	0xbde269e2	-0.11055352
125	0x3dbb2482	0.09137823
126	0xbe8625cf	-0.2620072
127	0x3e1cd563	0.15315776
128	0x3daa4c2d	0.083153106
129	0x3eb06bcd	0.34457245
130	0x3e7efd9b	0.2490143
131	0x3e97a588	0.29618478
132	0x3e53aaf4	0.20670682
133	0xbecf11b8	-0.40443206
134	0x3d273057	0.040817585
135	0x3d98092d	0.07423625
136	0xbce51523	-0.02796418
137	0x3cce0231	0.02514753
138	0x3e8a4b3c	0.27010524
139	0xbdcdd053	-0.100495
140	0xbe3e4e12	-0.18584469
141	0xbe063e4c	-0.13109702
142	0xbd3605f6	-0.04443928
143	0xbe5d3936	-0.21603855
144	0xbed32b62	-0.41244036
145	0xbea05c94	-0.31320632
146	0x3d47bb04	0.048762336
147	0xbe268f7a	-0.1626567
148	0xbdea8728	-0.1145156
149	0xbc3239a1	-0.010877998
150	0xbe9ced2a	-0.30649692
151	0x3e22a7b6	0.15884289
152	0xbe87405c	-0.2641629
153	0x3e22eaa6	0.15909824
154	0x3e3b16e0	0.18270445
155	0x3ead1fd3	0.33813342
156	0x3e195129	0.14972366
157	0xbe87c020	-0.26513767
158	0x3ea6aa6a	0.3255189
159	0x3e0262a8	0.12732947
160	0x3e37e252	0.17957428
161	0x3e4fabf5	0.2028044
162	0xbe8aba53	-0.2709528
163	0xbc0095a8	-0.007848181
164	0x3ca9e52e	0.020739164
165	0xbe8404bc	-0.25784862
166	0xbc9f8d32	-0.019476507
167	0x3e19f49e	0.1503472
168	0xbe2bd903	-0.16782002
169	0x3c5c6d0b	0.013453732
170	0x3df619e0	0.12016654
171	0xbe2c0279	-0.16797818
172	0xbe001834	-0.12509233
173	0x3d01cedb	0.031691413
174	0xbe52b034	-0.20575029
175	0x3e421b72	0.18955782
176	0x3d8f2efd	0.06991384
177	0xbe0df2e4	-0.13862187
178	0xbe0a8108	-0.13525784
179	0xbe1007ed	-0.14065523
180	0x3de3ec59	0.11129064
181	0x3e4fa402	0.20277408
182	0xbe6ca997	-0.23111568
183	0x3d60b687	0.05486157
184	0xbd925ba6	-0.07146387
185	0x3da7d081	0.08194066
186	0x3eae0872	0.33990818
187	0xbe6b9440	-0.23005772
188	0x3ea953fe	0.33071893
189	0x3e74f475	0.23921378
190	0x3c2436c8	0.0100228265
191	0x3e27d4f9	0.16389836
192	0x3d56505c	0.05232273
193	0x3e8cbaf5	0.27486387
194	0x3d8fb9b5	0.07017843
195	0x3df32ddc	0.11873981
196	0x3d9dad00	0.07699013
197	0xbdb2dfb0	-0.08734071
198	0xbd522342	-0.051303156
199	0x3e8f0d86	0.27940005
200	0x3c317bf8	0.010832779
201	0xbd1932df	-0.03740203
202	0xbe317ed2	-0.17333534
203	0xbcb14210	-0.021637946
204	0x3e25456d	0.16139765
205	0x3e04a444	0.12953287
206	0x3dcd9313	0.10037818
207	0x3d91f411	0.0712663
208	0x3e27bc9b	0.16380541
209	0xbdd7adc3	-0.10531189
210	0x3e1d0899	0.15335311
211	0xbce20bef	-0.027593581
212	0x3e26616e	0.16248104
213	0xbd76a551	-0.06021625
214	0x3e9b8bf5	0.30380216
215	0xbc2cf74d	-0.010557008
216	0xbe03ea4b	-0.12882344
217	0x3e81382a	0.25238162
218	0xbd8d46d9	-0.06898279
219	0xbcfdb664	-0.03097076
220	0x3ce7048e	0.028200414
221	0xbd28e4d9	-0.04123387
222	0x3e14537d	0.14484973
223	0xbe96305f	-0.2933378
224	0xbe5a7393	-0.2133315
225	0xbd49522a	-0.049150623
226	0xbbc9aa2b	-0.006154319
227	0xbd1013c7	-0.03517511
228	0x3bbaef9a	0.0057048323
229	0x3dd37a27	0.10326033
230	0x3e2a24ab	0.1661555
231	0xbe0e332b	-0.13886707
232	0xbe6b2829	-0.22964539
233	0xbb07d3fc	-0.0020725718
234	0x3e38bf7d	0.18041797
235	0xbd15f970	-0.036614835
236	0x3d5d1754	0.053977326
237	0x3ddb5130	0.10708845
238	0xbb4af744	-0.0030970136
239	0x3de60d46	0.112330005
240	0x3e752dad	0.23943205
241	0x3e21927c	0.15778536
242	0xbdefd25d	-0.117100455
243	0xbe7f1b4d	-0.24912758
244	0xbe762d34	-0.24040681
245	0x3e37dff8	0.17956531
246	0xbe40dd03	-0.1883431
247	0x3dceb1c6	0.10092501
248	0x3da58933	0.08082809
249	0x3df07021	0.11740137
250	0xbd07c45a	-0.03314624
251	0xbda82097	-0.08209341
252	0xbd491f94	-0.04910238
253	0x3a20a2df	0.00061277853
254	0x3dfc6107	0.12323194
255	0xbe5f77c2	-0.21823028

bias f4 [13]
0	0xbe963c0f	-0.29342696
1	0xbd840842	-0.064468876
2	0xbe92a14d	-0.28638688
3	0xbeab4251	-0.33449033
4	0xbe7c544c	-0.24641532
5	0xbea3451c	-0.31888664
6	0x3e7e68f5	0.24844725
7	0xbe90d8bc	-0.28290355
8	0xbe499203	-0.19684605
9	0xbee70630	-0.45121908
10	0x3ea8aa46	0.32942408
11	0x3dc70115	0.09717003
12	0xbec3cd48	-0.38242555

transitions f4 [13, 13]
0	0xbe819485	-0.25308624
1	0xbe27e46d	-0.16395731
2	0xbe865085	-0.26233307
3	0x3e36fff7	0.1787108
4	0xbea4c4ca	-0.32181388
5	0xbe192fbc	-0.14959615
6	0xbd5caac9	-0.05387381
7	0xbc5e7933	-0.013578701
8	0xbe9c2d94	-0.30503523
9	0xbefff21b	-0.499894
10	0xbe13f5d5	-0.14449246
11	0x3eb8a5fa	0.3606413
12	0xbecaae8d	-0.39586297
13	0x3e04f3ce	0.12983629
14	0x3dea31b8	0.11435264
15	0xbdda928a	-0.10672481
16	0xbe49fecb	-0.19726102
17	0xbdd0ff4f	-0.10204946
18	0xbef05a28	-0.46943784
19	0x3ea385dd	0.31938067
20	0xbf039abd	-0.51407987
21	0xbebc8ac4	-0.3682462
22	0xbeacec29	-0.33773926
23	0xbef61c5d	-0.48068514
24	0xbd78ebee	-0.060771875
25	0x3da18fc5	0.0788875
26	0xbef0e749	-0.47051457
27	0xbe48199a	-0.19541016
28	0xbefda1c6	-0.49537486
29	0x3eaf15a8	0.3419621
30	0xbf4d32c4	-0.8015559
31	0x3eb6c5d1	0.35697797
32	0x3ea786d4	0.32720053
33	0xbd4e5d44	-0.050381914
34	0x3e9ccb04	0.3062364
35	0xbe025a85	-0.12729843
36	0xbec584d5	-0.38577905
37	0xbea0e2e6	-0.3142311
38	0xbf128ca6	-0.5724586
39	0x3ce82622	0.028338496
40	0xbdd7e38a	-0.105414465
41	0xbd805584	-0.06266311
42	0x3e2dbdff	0.16967009
43	0xbee91fa7	-0.4553196
44	0xbe7261bc	-0.23670095
45	0xbf1f63a9	-0.62261444
46	0xbebfe239	-0.37477282
47	0xbd5c339a	-0.05376015
48	0xbe934c02	-0.28768927
49	0x3e82b2e1	0.255271
50	0xbda90169	-0.08252222
51	0x3e5433ba	0.20722857
52	0xbee26f73	-0.44225654
53	0xbe912ee0	-0.28356075
54	0xbeb06398	-0.34450984
55	0x3ccca1d9	0.024979519
56	0xbe02bd4b	-0.12767522
57	0xbe287400	-0.164505
58	0xbe1757c5	-0.14779575
59	0xbe9c69bf	-0.30549428
60	0xbe33de4d	-0.1756527
61	0xbee2f69d	-0.44328776
62	0xbd1a8bef	-0.037731107
63	0xbd07db4a	-0.033168115
64	0xbedf1e5c	-0.4357785
65	0xbda5fe23	-0.08105113
66	0x3d573fb7	0.052550998
67	0xbe13f749	-0.144498
68	0xbf60a870	-0.87757015
69	0xbe2822d7	-0.1641954
70	0xbd6a445e	-0.057194106
71	0xbd61d6c1	-0.055136446
72	0x3dd0deeb	0.10198768
73	0xbf3e110d	-0.7424477
74	0xbf0469fd	-0.51724225
75	0xbee1606d	-0.4401888
76	0xbe4fe004	-0.20300299
77	0xbe05fa60	-0.13083792
78	0x3f69f3ec	0.9138782
79	0xbe2566cb	-0.16152494
80	0x3ebdd696	0.3707778
81	0x3e4113c6	0.18855199
82	0xbd03628f	-0.032076415
83	0xbf08e513	-0.5347454
84	0x3ec805fc	0.39067066
85	0x3e4d8be4	0.20072895
86	0xbea01e5a	-0.31273156
87	0xbe26e73b	-0.16299145
88	0x3edc30b5	0.4300591
89	0x3e6b1e3e	0.22960755
90	0xbde38ba8	-0.11110622
91	0xbd8c32e5	-0.06845645
92	0xbf095154	-0.5363972
93	0xbed4aee5	-0.41539684
94	0xbea0d275	-0.31410566
95	0xbe69b728	-0.22823775
96	0xbee2933a	-0.4425295
97	0x3e65e2a9	0.22449745
98	0xbe69c140	-0.22827625
99	0xbf98dfb8	-1.1943274
100	0xbe9e734c	-0.3094734
101	0xbdc3870a	-0.09547241
102	0x3d9a6630	0.07539022
103	0xbdce437a	-0.10071464
104	0xbdaaad47	-0.08333831
105	0xbeab7384	-0.3348657
106	0xbeaf5bdc	-0.3424977
107	0x3de984b8	0.11402267
108	0xbf016de0	-0.5055828
109	0xbddbb8bf	-0.10728597
110	0xbd70bf55	-0.05877622
111	0xbe8b2ae3	-0.27181157
112	0x3dbd152d	0.092325546
113	0xbe38cddd	-0.1804728
114	0x3f0b142f	0.5432767
115	0x3e36627e	0.1781101
116	0x3e7f8fa3	0.24957137
117	0xbe0f4a6a	-0.1399323
118	0xbdb4207d	-0.08795259
119	0xbe17029a	-0.14747086
120	0xbe232487	-0.15931903
121	0xbec68c8c	-0.38779104
122	0xbe85445f	-0.26028726
123	0xbde5a601	-0.11213303
124	0xbe983062	-0.29724413
125	0xbe6dad50	-0.23210645
126	0xbf6e9a8f	-0.9320459
127	0x3e4df2ea	0.20112196
128	0xbe627aee	-0.22117206
129	0xbf162e70	-0.5866461
130	0xbe992a60	-0.29915142
131	0x3db668b6	0.08906691
132	0x3e4561d2	0.19275597
133	0x3debeef3	0.11520185
134	0xbebbf106	-0.36707324
135	0x3e43fc77	0.19139276
136	0x3e287963	0.16452555
137	0xbd943856	-0.07237308
138	0x3b27225c	0.0025502658
139	0x3ea492cb	0.32143244
140	0x3e9547bf	0.291563
141	0xbf47c005	-0.78027374
142	0xbe446206	-0.19178018
143	0x3e65f864	0.22458035
144	0xbf010e0b	-0.5041205
145	0xbe720d21	-0.23637821
146	0x3e0add6f	0.13561033
147	0xbe35ad04	-0.17741781
148	0xbe9453d6	-0.28970212
149	0xbef2290b	-0.47296938
150	0xbe7296df	-0.23690365
151	0xbd37f2e2	-0.044909365
152	0xbf25bacc	-0.64738154
153	0xbe8c37f1	-0.2738643
154	0x3f0a51f6	0.5403131
155	0xbe564d2a	-0.20927873
156	0x3d46775b	0.04845367
157	0xbf5631db	-0.83669823
158	0xbe9b249b	-0.30301365
159	0xbe1b0d37	-0.1514176
160	0xbed37f8d	-0.4130825
161	0xbe726957	-0.23672996
162	0xbee6845b	-0.45022854
163	0xbeb8a3d7	-0.360625
164	0xbefd3ed9	-0.4946201
165	0xbee5a047	-0.44848844
166	0xbf0a5cfe	-0.54048145
167	0xbe6f781e	-0.23385665
168	0xbd225e4e	-0.039640717

_constraint_mask f4 [15, 15]
0	0x3f800000	1.0
1	0x3f800000	1.0
2	0x3f800000	1.0
3	0x3f800000	1.0
4	0x3f800000	1.0
5	0x3f800000	1.0
6	0x3f800000	1.0
7	0x3f800000	1.0
8	0x3f800000	1.0
9	0x3f800000	1.0
10	0x3f800000	1.0
11	0x3f800000	1.0
12	0x3f800000	1.0
13	0x3f800000	1.0
14	0x3f800000	1.0
15	0x3f800000	1.0
16	0x3f800000	1.0
17	0x3f800000	1.0
18	0x3f800000	1.0
19	0x3f800000	1.0
20	0x3f800000	1.0
21	0x3f800000	1.0
22	0x3f800000	1.0
23	0x3f800000	1.0
24	0x3f800000	1.0
25	0x3f800000	1.0
26	0x3f800000	1.0
27	0x3f800000	1.0
28	0x3f800000	1.0
29	0x3f800000	1.0
30	0x3f800000	1.0
31	0x3f800000	1.0
32	0x3f800000	1.0
33	0x3f800000	1.0
34	0x3f800000	1.0
35	0x3f800000	1.0
36	0x3f800000	1.0
37	0x3f800000	1.0
38	0x3f800000	1.0
39	0x3f800000	1.0
40	0x3f800000	1.0
41	0x3f800000	1.0
42	0x3f800000	1.0
43	0x3f800000	1.0
44	0x3f800000	1.0
45	0x3f800000	1.0
46	0x3f800000	1.0
47	0x3f800000	1.0
48	0x3f800000	1.0
49	0x3f800000	1.0
50	0x3f800000	1.0
51	0x3f800000	1.0
52	0x3f800000	1.0
53	0x3f800000	1.0
54	0x3f800000	1.0
55	0x3f800000	1.0
56	0x3f800000	1.0
57	0x3f800000	1.0
58	0x3f800000	1.0
59	0x3f800000	1.0
60	0x3f800000	1.0
61	0x3f800000	1.0
62	0x3f800000	1.0
63	0x3f800000	1.0
64	0x3f800000	1.0
65	0x3f800000	1.0
66	0x3f800000	1.0
67	0x3f800000	1.0
68	0x3f800000	1.0
69	0x3f800000	1.0
70	0x3f800000	1.0
71	0x3f800000	1.0
72	0x3f800000	1.0
73	0x3f800000	1.0
74	0x3f800000	1.0
75	0x3f800000	1.0
76	0x3f800000	1.0
77	0x3f800000	1.0
78	0x3f800000	1.0
79	0x3f800000	1.0
80	0x3f800000	1.0
81	0x3f800000	1.0
82	0x3f800000	1.0
83	0x3f800000	1.0
84	0x3f800000	1.0
85	0x3f800000	1.0
86	0x3f800000	1.0
87	0x3f800000	1.0
88	0x3f800000	1.0
89	0x3f800000	1.0
90	0x3f800000	1.0
91	0x3f800000	1.0
92	0x3f800000	1.0
93	0x3f800000	1.0
94	0x3f800000	1.0
95	0x3f800000	1.0
96	0x3f800000	1.0
97	0x3f800000	1.0
98	0x3f800000	1.0
99	0x3f800000	1.0
100	0x3f800000	1.0
101	0x3f800000	1.0
102	0x3f800000	1.0
103	0x3f800000	1.0
104	0x3f800000	1.0
105	0x3f800000	1.0
106	0x3f800000	1.0
107	0x3f800000	1.0
108	0x3f800000	1.0
109	0x3f800000	1.0
110	0x3f800000	1.0
111	0x3f800000	1.0
112	0x3f800000	1.0
113	0x3f800000	1.0
114	0x3f800000	1.0
115	0x3f800000	1.0
116	0x3f800000	1.0
117	0x3f800000	1.0
118	0x3f800000	1.0
119	0x3f800000	1.0
120	0x3f800000	1.0
121	0x3f800000	1.0
122	0x3f800000	1.0
123	0x3f800000	1.0
124	0x3f800000	1.0
125	0x3f800000	1.0
126	0x3f800000	1.0
127	0x3f800000	1.0
128	0x3f800000	1.0
129	0x3f800000	1.0
130	0x3f800000	1.0
131	0x3f800000	1.0
132	0x3f800000	1.0
133	0x3f800000	1.0
134	0x3f800000	1.0
135	0x3f800000	1.0
136	0x3f800000	1.0
137	0x3f800000	1.0
138	0x3f800000	1.0
139	0x3f800000	1.0
140	0x3f800000	1.0
141	0x3f800000	1.0
142	0x3f800000	1.0
143	0x3f800000	1.0
144	0x3f800000	1.0
145	0x3f800000	1.0
146	0x3f800000	1.0
147	0x3f800000	1.0
148	0x3f800000	1.0
149	0x3f800000	1.0
150	0x3f800000	1.0
151	0x3f800000	1.0
152	0x3f800000	1.0
153	0x3f800000	1.0
154	0x3f800000	1.0
155	0x3f800000	1.0
156	0x3f800000	1.0
157	0x3f800000	1.0
158	0x3f800000	1.0
159	0x3f800000	1.0
160	0x3f800000	1.0
161	0x3f800000	1.0
162	0x3f800000	1.0
163	0x3f800000	1.0
164	0x3f800000	1.0
165	0x3f800000	1.0
166	0x3f800000	1.0
167	0x3f800000	1.0
168	0x3f800000	1.0
169	0x3f800000	1.0
170	0x3f800000	1.0
171	0x3f800000	1.0
172	0x3f800000	1.0
173	0x3f800000	1.0
174	0x3f800000	1.0
175	0x3f800000	1.0
176	0x3f800000	1.0
177	0x3f800000	1.0
178	0x3f800000	1.0
179	0x3f800000	1.0
180	0x3f800000	1.0
181	0x3f800000	1.0
182	0x3f800000	1.0
183	0x3f800000	1.0
184	0x3f800000	1.0
185	0x3f800000	1.0
186	0x3f800000	1.0
187	0x3f800000	1.0
188	0x3f800000	1.0
189	0x3f800000	1.0
190	0x3f800000	1.0
191	0x3f800000	1.0
192	0x3f800000	1.0
193	0x3f800000	1.0
194	0x3f800000	1.0
195	0x3f800000	1.0
196	0x3f800000	1.0
197	0x3f800000	1.0
198	0x3f800000	1.0
199	0x3f800000	1.0
200	0x3f800000	1.0
201	0x3f800000	1.0
202	0x3f800000	1.0
203	0x3f800000	1.0
204	0x3f800000	1.0
205	0x3f800000	1.0
206	0x3f800000	1.0
207	0x3f800000	1.0
208	0x3f800000	1.0
209	0x3f800000	1.0
210	0x3f800000	1.0
211	0x3f800000	1.0
212	0x3f800000	1.0
213	0x3f800000	1.0
214	0x3f800000	1.0
215	0x3f800000	1.0
216	0x3f800000	1.0
217	0x3f800000	1.0
218	0x3f800000	1.0
219	0x3f800000	1.0
220	0x3f800000	1.0
221	0x3f800000	1.0
222	0x3f800000	1.0
223	0x3f800000	1.0
224	0x3f800000	1.0

start_transitions f4 [13]
0	0x3f0c8261	0.5488644
1	0xc0258d0f	-2.5867345
2	0xbf15f3a3	-0.58574885
3	0xbfc156f5	-1.5104662
4	0xbf85ca38	-1.0452337
5	0x3e347d37	0.1762589
6	0xbc77f5a4	-0.015134249
7	0xbf7bdfce	-0.98388374
8	0xbef3fb7f	-0.47652814
9	0x3e680e01	0.22661592
10	0xbe9552c9	-0.29164723
11	0x4009c487	2.15262
12	0x3f86333f	1.0484389

end_transitions f4 [13]
0	0x3f02fcc0	0.51166916
1	0x3f856e47	1.0424279
2	0x3e92b37f	0.2865257
3	0x3f534871	0.8253241
4	0x3e267a7b	0.1625766
5	0xbf00fd14	-0.50386167
6	0x3f8b6219	1.0889312
7	0xbf5b2603	-0.85604876
8	0xbe74e3a3	-0.23914962
9	0xbf814b6c	-1.0101142
10	0x3f8c1c96	1.0946224
11	0x40353985	2.8316357
12	0xbf29e776	-0.66368806
