hw3/model/simple_tagger_pos/model.pt (torch, 549130 bytes, 3 tensors)

weight f4 [2372, 50]
1.8885468 1.6655896 0.7279678 -2.4267774 0.3555437 -1.5533714 -0.40620202 -1.9597667
-0.46402118 1.3367771 -0.6198385 -1.1103053 -1.0643375 -0.7770258 -1.013818 0.98311
1.9547714 -0.36330846 -0.23044479 0.27792102 -1.0680598 1.2248776 0.48834983 1.8309829
1.1129698 1.6401856 0.54815173 1.1584537 0.07166664 -0.16189004 -0.5301106 0.62455815
-1.3625131 -0.9571913 -0.5292611 1.9887767 0.011414062 -0.08439459 0.6291588 -0.5849046
-1.7489986 1.3526394 -1.123041 -0.6092872 -1.4790739 2.0911927 -1.522969 -0.083136596
-1.1979929 -0.49069184 0.2040784 0.6961699 -0.4863174 0.8518351 -1.160985 -1.0691824
-1.7764537 -0.33794352 0.23952864 0.3542434 -0.40096432 2.116463 -1.4706389 1.1045774
1.1563703 1.12737 2.5476217 0.26669082 0.606472 -0.3537587 -1.3775537 1.4446613
-0.5036019 0.7678238 -0.043011613 0.7650468 0.8321358 -0.8596005 -1.8960253 -0.9835461
-0.36031324 -0.64414793 -1.3974802 -0.66927785 0.24500865 0.5105282 0.81378305 0.41887856
1.064143 -0.48275632 -1.289158 0.9498281 -2.0178216 -0.85350126 1.0849379 0.7717712
-2.8138673 0.8409925 0.4518751 0.23234497 0.7481355 0.8735112 0.7927075 -0.83972293
-0.5647486 0.3783079 0.0050265966 -0.26321322 0.6326638 0.85424703 -0.30200174 0.09000571
-1.7890646 -0.44629174 -0.94411635 0.773831 1.1175967 -0.18225299 -0.03914028 0.3475177
-0.41898066 0.4236387 -0.2560568 1.0050659 0.84433717 0.7427153 0.81968313 0.15350534
2.328467 0.7216669 -1.7679816 -1.4538556 -0.11397347 1.3161743 0.20305312 0.968042
0.7635625 0.42715877 -1.425411 1.2059765 -0.63910234 1.4517142 -1.022615 0.5820208
-1.3651782 1.1900811 1.2564085 1.876555 -0.10381966 0.0658914 -0.7693698 0.29591855
0.1391014 0.7156554 -0.70443225 1.4056555 -2.715952 -0.6352782 -0.9721027 0.572562
-2.0213342 0.48107028 -0.16868208 -0.56754345 0.0979699 -0.57995754 0.383908 -1.2659146
-1.3839623 1.3699898 1.0434666 0.20916383 -1.7522576 0.9055448 0.58190066 2.286336
-0.10320419 -0.01587674 -0.6046669 -0.39134595 -1.1664926 -1.7642539 -1.114899 -0.6952142
-0.72876346 -1.2578311 -2.1332104 0.37379014 1.2730706 -0.37932545 0.516866 0.9502932
1.5507393 -0.92481345 0.7387283 -0.166478 -1.387379 0.6282285 0.267454 1.5722618
0.70223844 2.1752636 -0.33424503 -1.1791732 -0.03627193 0.8086318 1.0402889 0.19661368
-0.58526903 -1.2563994 -0.7404296 -0.4276498 -0.06419345 0.21413589 -0.3703492 -2.092882
-0.14918537 0.8897357 -1.5660907 1.3542459 0.07884158 -0.32740092 0.7794005 1.9063892
-0.1443349 1.9106926 0.40139848 -1.2500889 -0.33391616 -0.076044135 0.12716854 1.7561827
-0.22165821 -0.9572305 -2.305025 -1.2251321 -0.23661944 0.34575436 0.41985357 0.24796899
-1.1351358 0.5440962 -0.7499517 0.36369312 -1.0801479 0.23207606 -0.56644136 1.6969204
0.998298 -0.6281325 0.963261 0.5636234 0.5908346 0.4037336 0.3588298 0.055306267
00000000: e7bb f13f 0a32 d53f 195c 3a3f 5250 1bc0
00000010: d309 b63e e0d4 c6bf b6f9 cfbe a3d9 fabf
00000020: 2f94 edbe 831b ab3f bcad 1ebf 7c1e 8ebf
00000030: 363c 88bf 2aeb 46bf cac4 81bf 19ad 7b3f
00000040: f335 fa3f 9103 babe b8f9 6bbe aa4b 8e3e
00000050: 2fb6 88bf cac8 9c3f fd08 fa3e a65d ea3f
00000060: cb75 8e3f 9af1 d13f ac53 0c3f 3648 943f
00000070: f6c5 923d 81c6 25be 54b5 07bf 0be3 1f3f
00000080: d466 aebf 7d0a 75bf a87d 07bf 3c90 fe3f
00000090: 0c02 3b3c 12d7 acbd 8d10 213f 4fbc 15bf
000000a0: 30df dfbf 4a23 ad3f cfbf 8fbf 3ffa 1bbf
000000b0: 4b52 bdbf 1ad6 0540 a6f0 c2bf 8543 aabd
000000c0: d557 99bf f63b fbbe eef9 503e 3138 323f
000000d0: 98fe f8be dd11 5a3f 289b 94bf f8da 88bf
000000e0: d662 e3bf ef06 adbe ff46 753e 645f b53e
000000f0: 324b cdbe 2174 0740 e53d bcbf cb62 8d3f
00000100: f103 943f a94d 903f 3c0c 2340 b38b 883e
00000110: c041 1b3f dc1f b5be ae53 b0bf a9ea b83f
00000120: 0eec 00bf 1a90 443f f22c 30bd 1bda 433f
00000130: da06 553f c70e 5cbf f5b0 f2bf adc9 7bbf
00000140: fa7a b8be e1e6 24bf a2e0 b2bf cb55 2bbf
00000150: 8ce3 7a3e fab1 023f 1654 503f 4077 d63e
00000160: d635 883f d62b f7be 2103 a5bf ef27 733f
00000170: fd23 01c0 0f7f 5abf 3fdf 8a3f cc92 453f
00000180: 6716 34c0 494b 573f 2c5c e73e d7eb 6d3e
00000190: cf85 3f3f 6e9e 5f3f e1ee 4a3f 15f8 56bf
000001a0: 5d93 10bf 93b1 c13e 26b6 a43b e2c3 86be
000001b0: 41f6 213f efaf 5a3f f99f 9abe ea54 b83d
000001c0: 1200 e5bf 5a80 e4be 9cb1 71bf ca19 463f
000001d0: 690d 8f3f 87a0 3abe 8f51 20bd d7ed b13e
000001e0: a284 d6be 2ce7 d83e e019 83be 00a6 803f
000001f0: 7b26 583f 9722 3e3f c1d6 513f 8130 1d3e
00000200: 9a05 1540 29bf 383f 394d e2bf f117 babf
00000210: ec6a e9bd 6678 a83f 28ed 4f3e 9ad1 773f
00000220: d578 433f 8eb4 da3e de73 b6bf 705d 9a3f
00000230: 369c 23bf c5d1 b93f 0ce5 82bf 51ff 143f
00000240: 29be aebf 9454 983f fed1 a03f f432 f03f
00000250: 679f d4bd 12f2 863d 6bf5 44bf a382 973e
00000260: 9970 0e3e 3135 373f ac55 34bf 85ec b33f
00000270: 28d2 2dc0 98a1 22bf b9db 78bf 6c93 123f
00000280: 8a5d 01c0 d84e f63e ffba 2cbe 874a 11bf
00000290: 71a4 c83d 1978 14bf 978f c43e 7d09 a2bf
000002a0: ad25 b1bf d35b af3f 5090 853f 0b2f 563e
000002b0: fa49 e0bf c9d1 673f 71f7 143f 5453 1240
000002c0: b85c d3bd f00f 82bc 73cb 1abf 7f5e c8be
000002d0: a14f 95bf 12d3 e1bf 03b5 8ebf 8ff9 31bf
000002e0: 3e90 3abf 9c00 a1bf 8586 08c0 6c61 bf3e
000002f0: faf3 a23f f236 c2be 5551 043f 6a46 733f
00000300: a07e c63f 93c0 6cbf 4c1d 3d3f 3579 2abe
00000310: a395 b1bf 95d3 203f bbef 883e e03f c93f
00000320: e6c5 333f 8537 0b40 2a22 abbe 26ef 96bf
00000330: e091 14bd 7e02 4f3f 3028 853f 1955 493e
00000340: 31d4 15bf b2d1 a0bf cb8c 3dbf eaf4 dabe
00000350: db77 83bd 7046 5b3e 699e bdbe c7f1 05c0
00000360: 0dc4 18be b8c5 633f a975 c8bf ee57 ad3f
00000370: b277 a13d 18a1 a7be cb86 473f 9004 f43f
00000380: 87cc 13be 9391 f43f 1a84 cd3e ea02 a0bf
00000390: 0ff7 aabe 07bd 9bbd 7838 023e 98ca e03f
000003a0: 5ffa 62be 0f0d 75bf 8885 13c0 21d1 9cbf
000003b0: 5e4c 72be b706 b13e 0cf7 d63e 95eb 7d3e
000003c0: 214c 91bf e349 0b3f d6fc 3fbf fc35 ba3e
000003d0: 4942 8abf 59a5 6d3e 4d02 11bf b034 d93f
000003e0: 7590 7f3f 4bcd 20bf 4698 763f a049 103f
000003f0: f040 173f 2cb6 ce3e 8ab8 b73e d388 623d

weight f4 [13, 50]
0.043419786 0.04647313 0.00599421 -0.25154543 -0.14292827 -0.21285069 -0.23882818 -0.26956028
0.28404498 -0.28305674 -0.13132566 0.1592874 -0.12865908 -0.12450097 -0.27116656 0.19431648
0.32504222 -0.06918556 0.14453177 0.026645206 -0.260916 0.11144495 -0.26442644 0.20218869
-0.050811455 0.23045088 0.109723285 -0.13730888 0.160734 -0.0779799 -0.16835909 -0.21277833
-0.0063419 -0.11277302 -0.05322923 -0.05007995 -0.2886499 0.19153295 0.2937781 0.055042606
-0.12237935 0.20527568 -0.29878432 -0.0014390361 -0.2797567 0.14540961 -0.17095526 0.22729483
-0.3306428 0.12292177 0.09037093 -0.33278373 -0.0537324 -0.2585984 0.20569701 -0.19109948
0.044803742 0.17111965 0.2954973 0.15757619 0.30443203 -0.007991057 0.17594574 0.015607955
-0.108360834 -0.20991912 0.10354787 -0.25985676 -0.008226943 -0.053895276 -0.21036372 0.1846492
-0.03009503 -0.013438476 -0.22105406 0.059351806 -0.15194535 0.1913262 -0.16771421 0.2808855
0.20325382 0.18455048 -0.12317453 -0.053420924 -0.016831905 -0.001644581 0.3063972 -0.24798909
-0.050528355 0.055153802 -0.1483196 0.25870743 -0.21253765 0.033755768 0.13537498 -0.047158945
0.30285576 0.09855653 0.3556822 0.05006957 -0.08267356 0.16191941 -0.18832846 0.18604179
-0.13752922 0.29536808 0.13242933 0.15471718 -0.12871578 -0.009586666 0.02061023 0.09559064
0.2790455 0.2776193 0.23447429 -0.20956075 -0.22371165 -0.07396881 0.2898344 -0.18840279
0.14335865 -0.2225758 -0.22301 -0.30091324 -0.11535786 0.10964381 -0.26694715 0.1574341
0.08918049 0.34649396 0.2716799 0.3059255 0.211135 -0.40628484 0.053911794 0.083262175
-0.03325238 0.03104396 0.26975307 -0.104826786 -0.19610716 -0.11864626 -0.0470306 -0.22943838
-0.43098295 -0.3222625 0.063680544 -0.16015951 -0.119719215 0.019242115 -0.33148873 0.16428469
-0.26494694 0.16028316 0.1835574 0.33765692 0.12748984 -0.26387486 0.32084623 0.115987256
0.18751459 0.2110188 -0.26166838 -0.019291846 0.03196177 -0.23980822 -0.011156736 0.15115508
-0.16834888 -0.009397331 0.13136262 -0.16410194 -0.096549 0.033938885 -0.2116261 0.20146787
0.10507245 -0.13899231 -0.14456397 -0.16057073 0.13358356 0.21026888 -0.22392216 0.07041119
-0.07735322 0.09971401 0.34022948 -0.21493842 0.33269158 0.24684933 0.010084314 0.17606317
0.060980808 0.28909203 0.03517709 0.12895966 0.08349134 -0.07973343 -0.048374243 0.2707571
-0.028797524 -0.04924687 -0.16475189 -0.020318853 0.14305463 0.103613764 0.101548314 0.086188115
0.1465435 -0.11420405 0.14761472 -0.006489924 0.14503711 -0.06257165 0.28907287 -0.008691994
-0.10922932 0.2467611 -0.034325905 -0.0025594244 0.011023246 -0.018161384 0.14199905 -0.27206805
-0.21352959 -0.05977939 -0.036990564 -0.03168641 -0.0070670103 0.11298023 0.16121805 -0.095268674
-0.18472187 -0.009142208 0.17687528 -0.003116608 0.06376926 0.10394643 0.031241573 0.1010944
0.21801227 0.13680267 -0.123450994 -0.24016567 -0.23950237 0.14321803 -0.16526146 0.13190076
0.094164856 0.061547283 -0.049362525 -0.093265094 -0.067374624 0.0015809328 0.13283646 -0.21364558
00000000: f2d8 313d 9c5a 3e3d 146b c43b 90ca 80be
00000010: ca5b 12be 88f5 59be 608f 74be ce03 8abe
00000020: 586e 913e d0ec 90be 3c7a 06be 3c1c 233e
00000030: 35bf 03be 5dfa febd 58d6 8abe e6fa 463e
00000040: ef6b a63e 29b1 8dbd 2300 143e 0c47 da3c
00000050: c896 85be 403d e43d e762 87be 8d0a 4f3e
00000060: ac1f 50bd 51fb 6b3e 9ab6 e03d b39a 0cbe
00000070: 7497 243e edb3 9fbd 5366 2cbe 90e2 59be
00000080: b7cf cfbb 8bf5 e6bd e506 5abd a220 4dbd
00000090: ebc9 93be 3721 443e 156a 963e 5b74 613d
000000a0: 06a2 fabd ca33 523e 42fa 98be 0a9e bcba
000000b0: 453c 8fbe 42e6 143e e50e 2fbe fabf 683e
000000c0: 034a a9be 69be fb3d 6514 b93d a162 aabe
000000d0: 8116 5cbd 0267 84be 3da2 523e 95af 43be
000000e0: 2184 373d fd39 2f3e 6c4b 973e a75b 213e
000000f0: 84de 9b3e ecec 02bc 1f2b 343e 82b8 7f3c
00000100: 49ec ddbd 0af5 56be e810 d43d f20b 85be
00000110: 4dca 06bc 4bc1 5cbd 9669 57be ae14 3d3e
00000120: da89 f6bc 0e2d 5cbc ff5b 62be e11a 733d
00000130: 9097 1bbe 04eb 433e 46bd 2bbe 39d0 8f3e
00000140: c521 503e cdfa 3c3e ee42 fcbd e6cf 5abd
00000150: 10e3 89bc fb8e d7ba 18e0 9c3e daf0 7dbe
00000160: d2f6 4ebd f4e8 613d 18e1 17be 4d75 843e
00000170: 78a3 59be 7d43 0a3d bd9f 0a3e bd29 41bd
00000180: e90f 9b3e 02d8 c93d fa1b b63e c015 4d3d
00000190: c150 a9bd 34ce 253e 2dd9 40be bd81 3e3e
000001a0: 76d4 0cbe 7c3a 973e 8e9b 073e 2e6e 1e3e
000001b0: 12ce 03be 6411 1dbc c9d6 a83c 07c5 c33d
000001c0: 0ddf 8e3e 1e24 8e3e 071a 703e 1897 56be
000001d0: ab14 65be f67c 97bd 2d65 943e a9ec 40be
000001e0: 9ccc 123e e9ea 63be bc5c 64be 4d11 9abe
000001f0: be40 ecbd ef8c e03d 4cad 88be 6836 213e
00000200: 43a4 b63d a867 b13e a119 8b3e 44a2 9c3e
00000210: c633 583e 9104 d0be 9dd2 5c3d 5c85 aa3d
00000220: a633 08bd e74f fe3c 131d 8a3e 6daf d6bd
00000230: 51d0 48be cffc f2bd 29a3 40bd e5f1 6abe
00000240: cca9 dcbe 97ff a4be f26a 823d db00 24be
00000250: 592f f5bd a4a1 9d3c e4b8 a9be 3f3a 283e
00000260: 20a7 87be 4521 243e 79f6 3b3e 5ee1 ac3e
00000270: b28c 023e 9b1a 87be f545 a43e ba8a ed3d
00000280: d303 403e 5015 583e 66f9 85be ef09 9ebc
00000290: 58ea 023d 4990 75be beca 36bc 66c8 1a3e
000002a0: a663 2cbe 43f7 19bc ec83 063e 570a 28be
000002b0: 7bbb c5bd 8003 0b3d 83b4 58be 984d 4e3e
000002c0: 3a30 d73d 0054 0ebe 9408 14be a76c 24be
000002d0: 21ca 083e ba50 573e da4b 65be be33 903d
000002e0: 5d6b 9ebd dc36 cc3d 8f32 ae3e d118 5cbe
000002f0: 8d56 aa3e 12c6 7c3e ae38 253c e749 343e
00000300: 03c7 793d df03 943e da15 103d 000e 043e
00000310: 82fd aa3d 484b a3bd 1224 46bd ada0 8a3e
00000320: c9e8 ebbc 16b7 49bd b8b4 28be b973 a6bc
00000330: ea7c 123e 7433 d43d 90f8 cf3d 6583 b03d
00000340: 800f 163e d0e3 e9bd 5028 173e 6ea9 d4bb
00000350: 9c84 143e 9125 80bd 5c01 943e dd68 0ebc
00000360: 9fb3 dfbd f1ae 7c3e 5299 0cbd 04bc 27bb
00000370: d89a 343c 2fc7 94bc 3368 113e 814c 8bbe
00000380: 80a7 5abe 3cdb 74bd 6b83 17bd 9cc9 01bd
00000390: 6192 e7bb 2e62 e73d 5816 253e 391c c3bd
000003a0: bb27 3dbe 33c9 15bc cb1e 353e 0140 4cbb
000003b0: 7599 823d dee1 d43d 54ee ff3c 950a cf3d
000003c0: 9c3e 5f3e 0016 0c3e e0d3 fcbd fded 75be
000003d0: 1c40 75be bfa7 123e 4d3a 29be fe10 073e
000003e0: 81d9 c03d 0119 7c3d 5c30 4abd c501 bfbd
000003f0: b5fb 89bd 4d37 cf3a 4806 083e e8c5 5abe

bias f4 [13]
-0.22020453 -0.15280265 -0.30362007 -0.34334713 -0.2738826 -0.3522863 0.28086337 -0.3129301
-0.19062681 -0.46170047 0.35972178 0.34057072 -0.41377154
00000000: 4c7d 61be 4c78 1cbe 1774 9bbe 32cb afbe
00000010: 573a 8cbe df5e b4be 53cd 8f3e 6038 a0be
00000020: ad33 43be 0164 ecbe 742d b83e 495f ae3e
00000030: ddd9 d3be
