hw3/model/enc_only_s_tagger_pos/model.pt (torch, 614610 bytes, 11 tensors)

weight f4 [2372, 50]
00000000: 6b69 0c40 5ea1 c63f 1c56 503f 004a 17c0
00000010: 6ca8 0a3f e7b1 b8bf 36ce 85be 9ec8 f0bf
00000020: d25e 33bf 5253 cd3f f5c1 d0be 703e ccbf
00000030: f373 69bf 2d44 13bf 27a4 66bf 9673 643f
00000040: 1c78 f03f 0b44 123e 0750 2bbf 04f5 323e
00000050: 1413 87bf 1e6b a93f 76fb 263f 7d42 f43f
00000060: 8c9d c43f ac9a c33f d2b7 5f3f a7fb a63f
00000070: d864 82bc d1d2 fb3d a2b4 d2be 643e 123f
00000080: e5c4 9abf 3d26 96bf 2d8e c6be 5388 e23f
00000090: c5e4 4b3e b81b 85be a26c fe3e e6d9 33bf
000000a0: 6705 c5bf 9f25 993f c65e 7dbf 92bd 11bf
000000b0: f4ca c5bf 8a7b 1740 09f5 b0bf 40b8 7bbe
000000c0: bb0f 93bf 5ff1 54bf 9965 ba3e 7f64 bd3e
000000d0: 5448 0fbf 2a6f 7b3f 9dce 6dbf 06c3 73bf
000000e0: 4ecc dcbf c6f7 81be 8d72 763e e0dd f03e
000000f0: 4936 bcbe 45b0 d03f 68bf b0bf fbdc ca3f
00000100: fefe 953f ba26 883f 6d5b 2440 6001 363f
00000110: 6525 f13d 5235 0dbf 08e6 a9bf 2322 bd3f
00000120: f137 d2be 4dd7 163f 8a0b b83e 0f7b 413f
00000130: 6c76 593f 0822 eebe fa96 f7bf 7136 66bf
00000140: d94c c03d a096 1cbf 5917 85bf 8819 61bf
00000150: ae2e 7c3e 3dc2 1e3f 318f 6b3f 9ecc ab3e
00000160: 3b06 783f a106 4fbe 25f8 66bf 01d9 6f3f
00000170: d9c8 01c0 2a98 30bf d72c 8f3f dc2c 403f
00000180: 71d1 2dc0 308a 3f3f c9e9 133f dd8c 2abe
00000190: 3811 733f be4f 263f ba9b 6c3f b461 3cbf
000001a0: a20a e1be 28ce d33e b7c5 363e 6e9d 37be
000001b0: 8602 f83e 2e24 ab3f 151e 8fbe e407 0fbf
000001c0: ad23 dfbf e522 0abe d3ab 54bf 8df8 453f
000001d0: 6534 823f bbea bc3e 96da 2bbf 2afc 853e
000001e0: e95d 9fbe 79b8 0c3f 843a ddbd 5b63 823f
000001f0: f38f b23f 98ce 283f 0e9b 603f 0e31 b33e
00000200: 52d4 0e40 45a4 583f 85b5 b9bf e0f3 abbf
00000210: 5b86 203e b7d8 a43f 8eaf d53e 1411 2e3f
00000220: b34e 633f 4dd8 9c3e 7d84 c4bf 36d2 993f
00000230: 3fb1 eabe 6b61 ab3f bc7a 7bbf 92b3 683f
00000240: 3901 8bbf 632a a03f 9ce6 ae3f a5ff e03f
00000250: 0279 f73c 3c52 e3be 5181 10bf 5d1e 373d
00000260: 5e93 0b3e c279 543f 1653 2ebf 39cf b63f
00000270: 3b10 2ac0 e885 26bf f39d 75bf a75b 223f
00000280: 32c0 04c0 4c4e cebc c5ed 5ebe fc9a 9abe
00000290: 4cf1 de3d 0fb8 04bf 9d0d d03e 297f 6ebf
000002a0: ef36 e8bf 8df7 8b3f 6f65 a53f 742b 7c3e
000002b0: da32 e0bf 1944 793f a0c8 7b3f 8e70 1040
000002c0: b638 673e 469d 6e3d 631b 15bf 4ea8 93be
000002d0: 48f3 46bf 551c e9bf 2af5 77bf 4732 41bf
000002e0: ea1f 15bf 9a63 c3bf f860 09c0 fccb ac3e
000002f0: a886 983f 2859 aebe c284 1a3f 242c 763f
00000300: 8c5c c43f 463e 3bbf b2e7 3f3f efa8 a2bd
00000310: 1b99 b0bf e34e 153f 630a 843e 4d4b ac3f
00000320: f2f2 4a3f 165b ec3f a646 24bf 0e69 8bbf
00000330: 3af1 d339 6ca6 6e3f 3157 873f 1677 533e
00000340: 34e6 09bf 4210 8ebf ae1d 41bf db20 5dbf
00000350: 1553 cebd 6cbb e13e 5dc4 d2be ed97 03c0
00000360: 5d03 01be d4b3 a73f 885c 04c0 e73f a23f
00000370: 7548 ac3e e217 67be 48d3 4f3f eb55 f83f
00000380: c937 7e3e 89ad f73f b9c9 d03e 8581 9abf
00000390: caf1 a7be 5187 26be ccc5 7f3e efbc de3f
000003a0: 8838 553d 3cfa 94bf d593 e7bf 7c33 9dbf
000003b0: 99cf 2bbe db92 af3e a3e9 ed3e 6bf1 2b3f
000003c0: 319f 70bf 1bce 093f 77a1 51bf 266d 2c3f
000003d0: daa4 8fbf 92b5 513e 95fc 04bf 687c d93f
000003e0: 9a11 7b3f 420d 18bf eb78 823f 2066 953e
000003f0: 1687 ce3e df00 c13e 04a3 ee3e 9f86 7b3e
2.1939342 1.5517995 0.8138139 -2.3638916 0.5416324 -1.4429291 -0.2613389 -1.8811224
-0.7006656 1.6041052 -0.40772977 -1.5956554 -0.9119255 -0.57525903 -0.90094227 0.8923887
1.8786654 0.14283769 -0.6691899 0.17476279 -1.0552697 1.3235815 0.6522745 1.9082791
1.536058 1.5281577 0.8738986 1.3045548 -0.015917227 0.122960694 -0.41153437 0.5712645
-1.2091337 -1.1730419 -0.38780347 1.7697853 0.19911487 -0.2599771 0.49692255 -0.7025436
-1.5392274 1.1964606 -0.9897274 -0.56929886 -1.5452561 2.3669152 -1.3824779 -0.24582005
-1.1489176 -0.83180803 0.36405638 0.36990735 -0.5596974 0.982165 -0.9289339 -0.9521946
-1.7249849 -0.2538435 0.24067135 0.47044277 -0.36760166 1.6303793 -1.3808413 1.5848688
1.1718442 1.0636818 2.5680802 0.7109585 0.117747106 -0.55159485 -1.3273325 1.4776043
-0.41058305 0.5892227 0.35946304 0.755784 0.8494632 -0.4651034 -1.9342949 -0.8992682
0.093896575 -0.61167336 -1.039775 -0.8792958 0.24627182 0.62015134 0.9201537 0.33554548
0.96884507 -0.20217372 -0.9022239 0.93690497 -2.0278838 -0.68982184 1.1185559 0.7506845
-2.7159083 0.7482023 0.577786 -0.16655298 0.9494815 0.64965427 0.9242512 -0.73586583
-0.43953425 0.41368222 0.1784886 -0.17931148 0.48439425 1.3370416 -0.27952638 -0.55871415
-1.7432762 -0.13489874 -0.8307468 0.77332383 1.017224 0.36897835 -0.6713041 0.26168948
-0.31126335 0.5496898 -0.108021766 1.0186571 1.395018 0.6594024 0.87736595 0.34998363
2.231709 0.84625655 -1.450852 -1.34338 0.15676253 1.2878636 0.417355 0.6799481
0.8879196 0.30633774 -1.5352932 1.2017276 -0.45838353 1.3389105 -0.9823415 0.90899
-1.0859748 1.2512935 1.3664126 1.7578017 0.030209068 -0.44398677 -0.5644732 0.04470669
0.13630435 0.8299829 -0.6809553 1.4281989 -2.6572406 -0.65048075 -0.95944136 0.634211
-2.0742307 -0.02518382 -0.2177039 -0.3019637 0.108858675 -0.5184335 0.40635386 -0.9316278
-1.8141764 1.0934922 1.292158 0.24625951 -1.7515519 0.97369534 0.98353004 2.2568698
0.22580227 0.058255456 -0.58244914 -0.28839344 -0.7771497 -1.8211771 -0.96858466 -0.7546734
-0.5825182 -1.5264771 -2.1465435 0.33749378 1.1916094 -0.34052396 0.6035882 0.96161103
1.5340743 -0.73141897 0.74962914 -0.07942378 -1.3796724 0.58323497 0.25789174 1.346048
0.79276955 1.8465297 -0.641703 -1.0891435 0.00040424784 0.9322269 1.0573484 0.20650896
-0.5386689 -1.1098711 -0.7543591 -0.8637826 -0.100744404 0.44088304 -0.41165438 -2.0561478
-0.12598939 1.3101754 -2.0681477 1.2675751 0.3364903 -0.22567704 0.81181765 1.940122
0.24825968 1.9349834 0.40778902 -1.2070776 -0.32801658 -0.16262557 0.24977797 1.7401408
0.052055866 -1.1638865 -1.809199 -1.2281337 -0.16778411 0.3429173 0.46467313 0.6716525
-0.93992907 0.53830117 -0.81887 0.6735405 -1.1222184 0.2047942 -0.5194791 1.6991091
0.9807373 -0.5939523 1.0193151 0.29179478 0.40337437 0.37695977 0.46608746 0.24563073

weight_ih_l0 f4 [100, 50]
00000000: 4c63 b9be eab3 ee3e e306 a0bc 230b 62be
00000010: c0f8 86bc bef2 1abe 1170 98be 0225 60bd
00000020: 325f 2a3e 9ecc 383d 1b73 79be f09f 3fbd
00000030: 05b0 de3c 8ed1 f23b 7f7a 89be dc08 b93e
00000040: c2b6 d53e dd6f d23d 21da 8d3e aef9 96be
00000050: 5ba8 c3be 9bd6 da3e 347a 27bd 7ae8 ac3e
00000060: 268e d33d 758b 813d 8e93 a9be 75a3 12bd
00000070: 74e3 633e 81f1 bcbe e344 ebbd 7c0f 79be
00000080: ee98 123e 459a a13d 7746 e8bd 30c3 3ebe
00000090: 3c43 10be a653 303e 5a8f d93e cb74 dfbe
000000a0: 3f1b 3ebe 4cbd bb3d 5846 e6be b1fc 883d
000000b0: 994c 9d3d 2694 8a3e c84a 85be 94dc 053e
000000c0: 5f19 d63c 0c76 8d3e 5d68 a83e c8de 6abe
000000d0: 6c89 6c3b cb3d 61be d474 473e de6c 83be
000000e0: cec8 8ebe cb59 263e 7e71 98be fc6a 253d
000000f0: fd7a ffbd db9a 0f3d 4607 0b3e f23a f43e
00000100: 3d7f 99be 3188 98bd d208 abbd fe89 a2bd
00000110: 9be7 d0bd 5b5a 0fbe dcc1 9abe 678e 403e
00000120: fbe6 9b3d 2d05 383d c338 9a3e ddfd ab3d
00000130: 3ebc 29be 4ab1 36bc 5854 05be 91a5 a63c
00000140: 1690 be3e 775b afbe c6c9 943d b1aa 8bbe
00000150: fc38 48be 6682 1cbe 7687 433d e07f 31be
00000160: 2328 623d 5fd7 5ebe 016c fb3e f8bb 7fbe
00000170: 76df 8a3d 55b9 413d ea42 423e 3d54 b63e
00000180: cd34 633d 4683 8fbd 680d 6a3d 11d3 a6be
00000190: 2cdb cbbc d3df 583e 2e02 f5bd 0da5 b13d
000001a0: 70ff f3bb 7c48 6a3e cea9 603d 4c6b 92be
000001b0: 6684 a7bd 0117 5b3e b36f c9be 0711 4d3e
000001c0: eacd 013d b758 2f3e 2035 b5bc 7685 f3bd
000001d0: 0f89 823d f90e 903e 06ac 403d 409e 2cbe
000001e0: f921 efbc 10f3 283e 71ff 01be d573 33be
000001f0: 9987 c53e c17f 063e 07bf d1bd 9b0b aa3d
00000200: 1543 8cbd b546 613d 062c e53d 679b 433e
00000210: c185 8dbd d074 6cbe 532c debd dc90 f7bd
00000220: bf50 5cbe 2d1b 513e b910 8e3e e22b 1cbe
00000230: a39c 5d3e 2d5f f5bd 8b0f 613d 6d2b 363e
00000240: 7233 03bd b2b8 2dbd 7eea 81bd 563f a9bd
00000250: 4ae9 a2be 8b5b cebb cb00 78be 31b1 72be
00000260: caa3 443e 2ea7 13be 07fd 5a3d 78a6 4abd
00000270: 9b96 dd3d 9636 8ebe 15b1 babd fe7b 4fbd
00000280: d50b eebc 458f cfbc a54e a5be e87b c43d
00000290: aaee 0cbe a443 d5be 2bc8 633e e068 c43e
000002a0: 7868 86be 05a5 68bd ad58 c03e 7156 283d
000002b0: 8ef9 e73c 5cc7 d6be 0df5 673e a93c 8d3e
000002c0: d15d 763a 41fe 25be 2cbd 073e 1e7a 313e
000002d0: 9a0a 8dbd 62ff 893e a4fc 05be 96e7 623d
000002e0: 57c0 6bbe 80ba 87be 44e1 283d fc6d c0be
000002f0: f97e 1d3e 2f81 1d3e 03f3 c03e 5c1c e7bd
00000300: 7465 9f3e 697f 763e 7bd0 04be 1ed5 f53d
00000310: b561 65be 45c7 67be c779 9b3e 0a01 b13c
00000320: 2df0 d4bc 7e90 92be 2986 8abd e41d 69be
00000330: bf30 93bd 3dab 723d bfeb 903e 2265 f73a
00000340: b67d 8abd e336 1b3e ed1c 893e 28b6 293e
00000350: b33e 6bbe 0073 26be f6dd 053e 8005 6bbd
00000360: 062b f1bd 4151 ad3e 8112 283e 6cfc b9be
00000370: 6ffa 4bbe 1362 4a3d 0cdc 333e d51c 90be
00000380: e6f6 093e 0bf7 673e 89fa 933d c3ad 8c3e
00000390: 768e 83be cb52 6b3c f0b8 d2bd a7f6 8dbe
000003a0: 9c76 873d 2026 353d b0de b7bd 330f f23c
000003b0: ab1e 2fbe 1154 88bd f2a1 e93b f8dd b43d
000003c0: 20f9 383e 1fa6 77be decc a7be 566b 08be
000003d0: 3de1 0ebc 94a4 203d dc9e 163e 2b70 e63d
000003e0: e1a4 a93b d095 673d 642a 043c 88f9 5dbe
000003f0: f8f0 2b3e 4daf 4abd 5834 2f3e 6dc9 78be
-0.3620857 0.4662164 -0.019534534 -0.22074561 -0.016476035 -0.15131661 -0.29773 -0.054722793
0.16637877 0.045117013 -0.24360316 -0.046783388 0.027183542 0.007410235 -0.2685127 0.36139572
0.41740996 0.102752425 0.27705482 -0.29487365 -0.38214383 0.42741856 -0.040888026 0.33771116
0.10329847 0.063254274 -0.33120388 -0.035800416 0.22254735 -0.36903003 -0.114877485 -0.24322313
0.1431615 0.07890753 -0.11341565 -0.18629146 -0.14088148 0.1721941 0.4249218 -0.43643793
-0.18565081 0.09166965 -0.44975543 0.06688822 0.076806255 0.27066153 -0.26033616 0.13072425
0.026135145 0.27629125 0.32892123 -0.22936547 0.0036092652 -0.21996228 0.1947816 -0.25668997
-0.27887577 0.16245191 -0.29774088 0.04038523 -0.1247463 0.03505979 0.13576993 0.47701222
-0.29979888 -0.074478514 -0.08351292 -0.07936476 -0.10200425 -0.13999312 -0.30226028 0.18804322
0.076124154 0.04492681 0.3012143 0.0839803 -0.16575715 -0.011150667 -0.13020456 0.02034262
0.37219304 -0.3424947 0.07265048 -0.27278665 -0.19552988 -0.15284118 0.047736607 -0.17333937
0.05521406 -0.21761845 0.49105838 -0.24974048 0.06780903 0.047295887 0.18970838 0.35611144
0.055470277 -0.0700746 0.05714169 -0.32582906 -0.024884783 0.21179132 -0.11963306 0.08674059
-0.007446222 0.22879213 0.05484944 -0.28597486 -0.0817955 0.21395494 -0.39343032 0.20026027
0.031690516 0.17123686 -0.022120059 -0.1189069 0.06373798 0.28136423 0.047039054 -0.16857243
-0.029191004 0.16498971 -0.126951 -0.17524655 0.38580015 0.13134672 -0.10241514 0.08302995
-0.068487324 0.054999072 0.111900374 0.1910225 -0.06910277 -0.23091435 -0.10848298 -0.120881766
-0.21515177 0.20420523 0.27747133 -0.15251115 0.21641783 -0.11981044 0.054946464 0.17790003
-0.032031484 -0.042412467 -0.06343554 -0.082640335 -0.3181861 -0.006297534 -0.24219052 -0.23700406
0.19203106 -0.14419243 0.053463962 -0.049475163 0.10819741 -0.2777602 -0.09115807 -0.050655358
-0.029058376 -0.02533687 -0.32286564 0.09593946 -0.13762918 -0.41653168 0.22244327 0.38361263
-0.26251578 -0.056798 0.37567654 0.041098062 0.02831724 -0.41948974 0.22652073 0.27585343
0.0009398135 -0.16210271 0.13255757 0.1733174 -0.06886788 0.26952654 -0.13084656 0.05539664
-0.2302259 -0.26509476 0.041230455 -0.3758391 0.15380467 0.15381311 0.37685403 -0.11284706
0.3113209 0.2407204 -0.12970154 0.120035395 -0.22400554 -0.22634609 0.30366346 0.02160694
-0.025993431 -0.28625864 -0.0676387 -0.22765309 -0.07187032 0.059245337 0.2830486 0.0018874744
-0.06762259 0.15157656 0.2677988 0.16573393 -0.22973137 -0.16254807 0.13072953 -0.057378292
-0.11775784 0.33851054 0.16413309 -0.36325395 -0.19919752 0.049409937 0.1756441 -0.28146997
0.1347309 0.22652833 0.0722552 0.2747632 -0.25694627 0.014363001 -0.1028918 -0.27727243
0.0661442 0.044225812 -0.08978021 0.029548263 -0.17101543 -0.066566594 0.007129901 0.088314
0.18063784 -0.24184464 -0.3277349 -0.13322195 -0.008720693 0.039219454 0.14709038 0.11251863
0.005177126 0.056539357 0.008066747 -0.2167722 0.16791141 -0.049483586 0.17109811 -0.24295588

weight_hh_l0 f4 [100, 25]
00000000: 146c aabe c7f8 3fbe aa31 8c3e 965d 92be
00000010: 80f0 ddbd c252 da3e 902f c23e bbde 433d
00000020: 9de7 7cbe 5e3c 983c 8fb6 b93e 666c 603e
00000030: df4d 2dbe 244c 8b3d 8c86 26be 439e 963e
00000040: f02c 1c3d e0ea 0c3f ba25 263e 2fb9 a0bd
00000050: b93d 51bd 72de 88be d254 bfbe 8d67 bfbd
00000060: d72d 003d 21b7 8fbe 2dc4 07be e455 073e
00000070: 2e5b 6c3e 06e7 05be 2552 d13e 3456 8f3e
00000080: 0058 9f3e 0a08 8cbe f757 963c 91d5 963e
00000090: 3e79 d63d bdbb 61be b82e 073c efb5 793d
000000a0: 3f40 773d be14 1b3d 61e1 ab3e 6c19 be3e
000000b0: 95fc 673e d52a 43be a0cf 3cbe 029a 00be
000000c0: 9259 9b3e 550b e23b afa0 6dbe 03e6 4d3c
000000d0: d9d1 803e 6864 89be 1f1c 8dbe 57aa ee3e
000000e0: d445 9c3e 4f26 9f3e 2f66 8dbe f266 263e
000000f0: 49fe 513e f08e 7b3e f77a babe b16d 11be
00000100: d692 2dbe 11da 9d3e fe2b ee3d f191 9b3e
00000110: eff1 a63e 1ca3 6b3c 0846 25be 1279 19be
00000120: 4898 02bf f8b0 153b 1e78 153e aab2 60bc
00000130: bf37 8abe a9ee 623e 6cd8 40bd 84e8 9ebe
00000140: f972 d33e 4057 f33e d002 f73e e8a7 dfbe
00000150: dabc 0e3e 323e b83e 01ae 0b3e deae e1bd
00000160: b7c3 f13c 484f abbe c644 d23e 4f65 273e
00000170: d977 9e3e c891 0d3f 4781 5f3e ad54 7fbd
00000180: 7c22 cabe 0f72 c3be a2ca cbbd 0832 9ebd
00000190: 98fe 86be 0813 babc 271a cc3e 668b d53d
000001a0: 54d6 a6be a5f3 a53e 1b1c 4b3e 6874 bb3e
000001b0: a5db b9bd 2e2b c53d 8144 843e 034b c2bd
000001c0: 1b21 a7be fe35 ecbd 5f3e 76be d1dc 133e
000001d0: c00f 1abe c71c ac3e 7f1f 913e f476 173e
000001e0: d7e6 bc3d bcfd 6abe 7948 e8bd 47f4 12be
000001f0: ea47 743e 22f3 91be 97cf 96be bb65 903e
00000200: b4b9 7fbe ebb1 0cbe 0493 873e 0419 2e3e
00000210: ff40 a13d 3846 b13d 0f67 2b3c 174f ee3e
00000220: e368 e33d 2b28 87be c929 313e 1b20 f3bd
00000230: c53a 353e 74b4 d4bd fada c53e 1dd0 223e
00000240: 8dec d43d d8bb 58be f066 a5be 98f7 95be
00000250: 4796 31be ed1e 393e b7a4 00bf d762 2abe
00000260: e356 473e 36d3 5fbe 9b59 eebd c888 213e
00000270: 1b99 ef3e 9b3b c33e d5fa 50bd 47de 953e
00000280: 7206 e23e 34c8 953e 0c0b 4abd c234 6c3d
00000290: f27a 98be dab4 933d c54b d23c 8527 613e
000002a0: d9af eb3e 086e 773c 6d13 d4bb 8758 bcbe
000002b0: 5e22 29be e4ca 9f3e f437 833e 3c53 e9bd
000002c0: 0d81 443e 72c0 443e 2f01 0cbe d302 0abe
000002d0: d58f 2d3e e53b 433e 183a 483e 042c b0be
000002e0: cc1e a93e 9ead c93e ebbf 0d3e 7753 0ebe
000002f0: cb64 23be f0a8 b1be 7d4c 4a3e 8823 433e
00000300: 4c90 373d a1bb ca3e b227 88be ad33 80be
00000310: dcba 963c 0488 d4be ddbe 0e3e 7169 92bd
00000320: 4012 a7be a41a 47bb d848 ea3e e9d2 653e
00000330: 3e13 c7be 0257 2e3e 3ad9 023f 8810 823e
00000340: 86ee aabd 418c 72bc 55b4 cb3e 3b32 7a3e
00000350: 9112 adbe d48f 1e3e 0929 6fbd cc35 813e
00000360: c741 97bd 1048 963e 535e 723e 6c8b a53d
00000370: 659c 81be 97e2 9abe 7a21 edbe 879d d03c
00000380: 3494 e03d e03e b9bd 9384 85bc 084e cd3e
00000390: 58d2 d1bd 71f8 a5be 6e69 743e efc5 ee3e
000003a0: 7d8f 2e3e 09a3 e3be c4e1 893e 42b2 5b3e
000003b0: 004b 9b3e 4d99 7ebe 59a4 663b f993 b2be
000003c0: 4520 0f3e 55e9 723e e7fe c23e c14a 663e
000003d0: 5945 ae3d fad0 75be 58c0 b8be 732d b7be
000003e0: 500c f03d 7edf 083e 78a9 b9be 62dc 83be
000003f0: f2c8 8b3e fde4 eebd f60b 423a cea4 043f
-0.33285582 -0.18747245 0.2738164 -0.28587025 -0.10836887 0.42641264 0.37926912 0.047819834
-0.24697728 0.018583473 0.36272094 0.2191635 -0.16924237 0.06801632 -0.16262263 0.2941762
0.038128793 0.5504589 0.16225329 -0.07847821 -0.051084254 -0.26732212 -0.373694 -0.093459226
0.031293716 -0.28069404 -0.13258429 0.13216358 0.23081657 -0.1307641 0.40882984 0.27995455
0.31121826 -0.27349883 0.018352492 0.29459813 0.10472344 -0.22044273 0.008250885 0.06096452
0.060364004 0.03786158 0.33570388 0.3712877 0.22654946 -0.19059308 -0.18438578 -0.1255875
0.30341774 0.0068983235 -0.23205827 0.012567046 0.251601 -0.26834416 -0.27560517 0.46614334
0.30522025 0.31083915 -0.27617022 0.16250208 0.20507158 0.24566245 -0.3642194 -0.14202
-0.16950545 0.30830434 0.116294846 0.30384782 0.32606456 0.01438215 -0.16139996 -0.14987591
-0.5101361 0.0022841077 0.14596602 -0.013714472 -0.26995656 0.22161354 -0.047081396 -0.3103677
0.41298655 0.47527504 0.48244333 -0.4368279 0.13939229 0.3598495 0.13640596 -0.110196814
0.02951227 -0.33458924 0.41068095 0.1634724 0.30950812 0.5530057 0.21826659 -0.062336612
-0.39479434 -0.38172957 -0.099507585 -0.077243865 -0.26366115 -0.022714153 0.39863703 0.10426979
-0.32585394 0.3241245 0.1983494 0.36612248 -0.09075097 0.096273765 0.25833514 -0.094869636
-0.32642445 -0.11533736 -0.2404723 0.14439704 -0.1504507 0.33615705 0.28344342 0.14791471
0.09223717 -0.22948354 -0.11341948 -0.14350997 0.23855558 -0.28505808 -0.29455253 0.28202614
-0.24973184 -0.13739745 0.26479352 0.1700173 0.07873725 0.08655971 0.010461583 0.46544716
0.1110399 -0.26397833 0.17301096 -0.11871358 0.176982 -0.10385981 0.38643628 0.15899701
0.10396681 -0.21165407 -0.32305098 -0.29290462 -0.17342483 0.18078203 -0.50251335 -0.16639267
0.19466738 -0.21857914 -0.11638185 0.15774834 0.46796498 0.38131413 -0.051020462 0.29271147
0.44145542 0.29254305 -0.04932694 0.0576675 -0.297813 0.07212229 0.025670895 0.21987732
0.460326 0.015101917 -0.0064720423 -0.3678629 -0.16517016 0.3120948 0.25628626 -0.11392829
0.19189854 0.19214037 -0.13672327 -0.1347764 0.16949399 0.19065817 0.19553411 -0.3440858
0.3303131 0.39390272 0.13842742 -0.13899027 -0.15956418 -0.34699202 0.1975574 0.19056523
0.044815347 0.39596274 -0.26592785 -0.25039425 0.018399648 -0.41510022 0.13939996 -0.071490176
-0.3263111 -0.003038087 0.457587 0.22443737 -0.38881868 0.17025378 0.5111271 0.25403237
-0.08346276 -0.014803947 0.3978602 0.24433224 -0.33803228 0.15484554 -0.058388744 0.25236356
-0.07385593 0.29351854 0.23668794 0.08083233 -0.25314632 -0.30251 -0.46314603 0.02546574
0.109657675 -0.090451956 -0.016298568 0.40098596 -0.10245198 -0.32416108 0.23868343 0.46635386
0.17046924 -0.44460323 0.26930058 0.21454719 0.30330658 -0.24863167 0.0035193174 -0.3487852
0.13977154 0.23721822 0.380851 0.22489454 0.08509321 -0.240055 -0.36084247 -0.35776863
0.117210984 0.13366506 -0.36262107 -0.25754076 0.27301747 -0.1166477 0.0007402295 0.5181397

bias_ih_l0 f4 [100]
00000000: aa2e c83e eb71 de3e 50d3 333e 8e67 d73e
00000010: 4f9e 133e 761b c93e 1688 8b3e f8ee 9c3e
00000020: c365 ce3e 7a0f a33d 562a bd3d acca 5b3e
00000030: cbc8 283e c875 8c3e 36f3 8c3e 1c66 e83e
00000040: 3fae ac3e e92c d73e e4f1 733e d1bc 903e
00000050: 9b2d 593e 3f8a 7b3e 1374 ba3e fe4d b33d
00000060: 8383 d93e 4a41 eb3c aa93 26bd 9d5d b23c
00000070: 112b f2bd 864d 8a3d 46fb 8a3e 0372 aa3e
00000080: 65d9 4c3d bc16 873e 9f7f 913d 787b 70bd
00000090: 7221 ad39 1b7e 6e3d 2162 2fbe 9b6f bbbd
000000a0: 8fd5 88bd 287c 6bbe d74b 833e d487 e93d
000000b0: 17cd 6ebe 4bb4 513c 01e3 a9be b368 443e
000000c0: c9c9 80bd a545 3bbe a815 81be b973 34be
000000d0: 9451 4f3e 90df 0bbe 72ca 58be dc77 5f3e
000000e0: 8c63 9f3e dd9e b43d 6971 85be 4005 a13e
000000f0: 49b2 f53d 194f ee3d 4201 e3be 4929 8fbe
00000100: d87f a0be 13a5 953e e3e7 813e bf15 d63d
00000110: 2c8a ad3e 9cac 893d 6d5e 24be eb03 47be
00000120: 3266 76be 0621 4b3d 589a 103e 4a38 f53e
00000130: a39e 353e 7472 753e c487 e53e 062b dc3e
00000140: 3cf8 dc3e 0be7 ac3e 4705 e43e de8c cc3e
00000150: 2c36 e23e 166e 0d3e 6364 6f3e 636e f33e
00000160: d9a7 963e 2f07 833e d9cf a23e dd42 b43e
00000170: 91fc cd3e 3f70 7d3e 1d58 0c3e fadd d63e
00000180: 5fe8 0e3e e6ad b43e 98ff 943e a046 c73e
0.39098102 0.43446288 0.17561078 0.42071193 0.14415859 0.39278764 0.27252263 0.3065107
0.40312013 0.07961936 0.092365906 0.21464032 0.16482846 0.2743361 0.27529305 0.45390403
0.3372669 0.4202645 0.23822743 0.28269055 0.21208803 0.24564455 0.36416683 0.0875511
0.42483148 0.028717656 -0.040668167 0.021773154 -0.118246205 0.06753068 0.2714483 0.3329011
0.05001201 0.26384532 0.0710442 -0.0587115 0.0003302205 0.058225732 -0.17127277 -0.091521464
-0.06681358 -0.2299658 0.256438 0.1140286 -0.23320423 0.012799333 -0.33181003 0.19180565
-0.062884875 -0.18288286 -0.25211835 -0.1762227 0.20245963 -0.13659501 -0.21170977 0.21823066
0.31130636 0.08819363 -0.26063088 0.31449318 0.11996896 0.116361804 -0.44336897 -0.27961186
-0.31347537 0.29227504 0.25372228 0.104533665 0.3389448 0.06722376 -0.16051646 -0.19435088
-0.24062422 0.04959204 0.14121377 0.47894508 0.17736296 0.23969442 0.44830143 0.43001574
0.43158138 0.33770022 0.44535276 0.39951223 0.44181955 0.13811526 0.23378138 0.47545156
0.29424933 0.25591418 0.317992 0.35207263 0.40231755 0.2474985 0.13705488 0.4196623
0.1395583 0.35288924 0.29101253 0.3892107

bias_hh_l0 f4 [100]
00000000: 8729 843e 8c6a 003f a0e0 ce3e 45d0 8b3e
00000010: fae6 223e 1579 6d3e f882 8e3e 010a a83e
00000020: 650b cb3e 98ec c43d e3d0 b33e 8293 753e
00000030: 8caa 143e 7eef 0e3e eece 0c3f 4dd5 d43e
00000040: ab25 e63e f905 ad3e fb60 8a3e 7964 b23e
00000050: 55bc 993e 3b3c a23e c37a 343e 9716 bd3e
00000060: 9862 f63d 6348 9ebd c1cf b03c b7ec efbd
00000070: 1265 86bb b189 583e 682b 253e ddb7 753e
00000080: 4f35 863e a1ce d73d a6f8 023d 53c4 023d
00000090: bad3 033d ae02 863d 1a41 3abe 7eeb 7dbe
000000a0: 413f 2c3e 1d58 b3be c866 ea3d 9d7a 853e
000000b0: 62eb 80bd 5e56 463d 3ec1 4fbd dec9 d2bd
000000c0: 724f 813c 1d2e a3be d392 4dbe b59d b93d
000000d0: 9c5f 523e f2b4 78bd b49a 7bbe 142e 993e
000000e0: c685 253e 5b95 963e a41d 14bd b591 9e3e
000000f0: bdbb 923e f837 d5bd 7040 5bbe d840 b13c
00000100: 4eec 863d 3583 ae3d 6197 85bd 2a7d 333e
00000110: 8982 883e 4bc9 03be 1732 86bc e5e9 a03d
00000120: 835c 2dbe a527 b639 8e84 02be 8af6 873e
00000130: 6914 d73e 9176 c73e d96c e03e c20b 953e
00000140: 6da6 4d3e ea68 853e 4749 e63e 0bce a63e
00000150: 0d4a c73e 979b 603e e46a d03e 5c6a 103e
00000160: 1b00 8d3e cf27 a63e 9886 ae3e b77e a73e
00000170: 4405 d33e 0b1c 8b3e f8bd f03e d179 793e
00000180: c51e 2c3e 6405 ea3d b249 973e 83e7 903e
0.25812933 0.5016258 0.4040575 0.27307335 0.15908423 0.2319072 0.27834296 0.32820132
0.3965713 0.09615439 0.35120305 0.23982051 0.14518183 0.13958547 0.5500325 0.41568986
0.44950613 0.3379362 0.27027115 0.3484228 0.30026498 0.31686577 0.17624955 0.36931297
0.12030524 -0.077286504 0.02158344 -0.11715072 -0.004101404 0.21146275 0.1612984 0.2399592
0.26212546 0.10537458 0.03197541 0.03192551 0.03218434 0.0654348 -0.18188897 -0.24796864
0.16821004 -0.35028163 0.11445385 0.2607011 -0.06294896 0.04842221 -0.0507214 -0.10292409
0.015784953 -0.3187112 -0.2007554 0.09063283 0.20544285 -0.060719438 -0.24570733 0.29917967
0.16164312 0.29410824 -0.03616108 0.3097054 0.28658858 -0.10411066 -0.214113 0.021637365
0.0658804 0.085211195 -0.06523014 0.17528215 0.2666209 -0.12869756 -0.016381307 0.07857112
-0.16929822 0.00034743283 -0.12745878 0.26555282 0.4200776 0.38957646 0.43833044 0.29110533
0.20083018 0.26056606 0.4497778 0.32579073 0.38923684 0.21934353 0.4070655 0.14103073
0.27539143 0.32452247 0.34087062 0.32713863 0.41214955 0.27169833 0.47019935 0.24362876
0.16808613 0.114268094 0.29548413 0.2830163

weight_ih_l0_reverse f4 [100, 50]
00000000: 2b57 aa3d 499b 8d3e de4e 303e 6e8e 16be
00000010: 4d77 b73d e13a bd3d f4da 1ebe 1e76 17be
00000020: 31c2 11bd 1548 ba3d 10ff 3fbe c742 6dbd
00000030: c4c0 70bd 4dca 33bd a378 173e 5391 af3d
00000040: f848 68bd c0e6 b9bd 3dc5 fbbd 07d5 38bd
00000050: 8a80 67be e2f6 82bd da1b 0c3e d858 0d3e
00000060: a73b 203d 5d85 3a3e 241e 81bd 0a5a 4e3e
00000070: 44a9 2cbe 7258 adbd fbba 403e 9622 10bd
00000080: 593b f0bd fff2 633d 9ed5 90be 1bf5 e4bd
00000090: f4a5 4bbe 0694 c6bd f0c1 953d fab0 583e
000000a0: ba45 373e 76ef b0bd 24d2 2cbd d668 9abc
000000b0: 57da 833e 54cd 0f3e a968 9a3d e5da 343c
000000c0: 602a 193e c78d c03d fb09 993d c61b ee3d
000000d0: 27d7 c13d 4852 593e e96b 67be e07a 9f3d
000000e0: b5bf 72be 1ce5 30be e3c3 10bc fc02 dfbd
000000f0: 71c3 b9bd 705b 83be e407 6b3d a5c8 a63e
00000100: 8fe3 3e3e ba99 a1be 9775 8abe 66fa 2b3d
00000110: 82e4 b93d ec46 0cbe f383 13be 28dc f8bd
00000120: c741 803e f78b 27be a465 213d 1bb0 793e
00000130: 4a80 c73c cdcb 7abd 0bee b43d ea92 62bd
00000140: b8e1 fcbc b244 4e3c c04e 6fbe d1e8 0fbc
00000150: b32c 2dbd 870c f53c ca29 3b3d df46 263e
00000160: e354 89bd aa98 98bd 679a 84be 5c65 4abe
00000170: 90fb 7a3d 4c5b a2be 80b3 2abe d32c 29bd
00000180: 986c 023e e515 0abe 9aae 59be 2d95 d9bd
00000190: c91c 12bd 560c 61bc b663 85be ebaf bebd
000001a0: eb4f 2f3d 43ec 183e b624 bb3c cca4 9e3d
000001b0: 222e b2bc 565d fabb 6967 69bd 5262 6bbe
000001c0: 6e2d 95bd 41b3 66bd c080 513e ac16 81bd
000001d0: 2c40 d13d f52d 983e 1649 85be e43d 9f3d
000001e0: 47fa a93d 9492 3fbe 8e34 fb3c f056 8bbe
000001f0: 28c9 213e 54f7 83bd 0bd9 0dbe 4ffe 403d
00000200: 8ea5 abbd d0c5 1fbe c734 1f3e fe75 3bbe
00000210: 96b3 8abd 20fb 3a3e aacf 80bd 03f7 e33d
00000220: 0626 d9bd 25af 43be 0511 d4bd dfb7 3bbe
00000230: 48f3 87bd e6f8 b0bd 2d48 fc3d c2d9 55bb
00000240: d7bb 86bd 6e23 e5bd 882d 8f3d 8f08 673d
00000250: 439a 9c3e 0666 51bd b216 583d dbbc 853e
00000260: 8194 7fbe f737 193e afd2 25bd bd59 713d
00000270: 977e 92bd c22b 28bd 6e5d 133d a646 db3d
00000280: b9d5 2f3d b4dd 65bd 1f21 ae3d 91d9 74bd
00000290: d24c eebd 4340 403d 11bd abbd 2e12 ac3c
000002a0: e665 6bbe c90e 4fbe 6969 e03d fa99 3bbd
000002b0: 320a 933d a1ca ed3c 8b48 1bbe 6aa9 8d3e
000002c0: 0e9f 3fbd 8dd0 953d 1a65 9d3e dc0c 7bbc
000002d0: 9cbf 323e 35b6 ecbd 491f 673b 9b9e 8ebe
000002e0: c2bd 7a3d 5f4b 0cbe ac2d a33c eb25 c8bc
000002f0: f6f0 f63d acc7 983e 0379 6d3e 3665 063d
00000300: ceba 8c3e 4a40 103e d75c 08be a6c9 11bc
00000310: c32b 33be 4ccc 40be 450d 39bd 1cf8 e93d
00000320: 6e55 ecbc c77d 4e3d 8e7c 51bb d02e 923d
00000330: 0377 22be b375 ebbd 5d92 18be 5f3c 083d
00000340: 33e0 1ebe 75bb 823e 5973 033e e9f4 30be
00000350: 3873 89be b0b6 63b7 ab13 9dbd 462c 863d
00000360: 644a 803e ac9f a23d 6a13 f63c 0ede fdbc
00000370: 5a56 ca3d 8258 923e b276 9abd 626f 5a3e
00000380: d221 4f3d 22cd 8f3d ecf5 073e 8268 a7bc
00000390: 9cd2 1f3d 1a1e 733e f4c9 333e 5bb3 5a3d
000003a0: d662 003f 5e1a 84be b33b b63d 61a7 a13e
000003b0: 6f03 b6bd 824e 363e 9feb 87bd 075a b93d
000003c0: d8fa 76be 798d 3e3e 8aa5 673d 3ebc 96be
000003d0: f8b2 4d3e 26ae 563d ce82 2d3e 676b 12bc
000003e0: 2d98 86bd 59df 343e 206c 22be f435 263e
000003f0: 2a7e 29bd 8434 143d a587 16be eea7 eebd
0.08317407 0.27657536 0.17217585 -0.1470277 0.08958302 0.09239746 -0.15513211 -0.14791152
-0.035585586 0.0909578 -0.18749642 -0.057925012 -0.058777586 -0.0438941 0.14792113 0.0857264
-0.056710213 -0.09077215 -0.122934796 -0.045125034 -0.22607628 -0.063947454 0.136825 0.13803422
0.03911939 0.18214937 -0.06304577 0.20151535 -0.16861445 -0.08464135 0.18821327 -0.035189234
-0.1173007 0.05565166 -0.28287977 -0.11179563 -0.19887525 -0.09696202 0.07312381 0.21161261
0.17897692 -0.086394235 -0.042192593 -0.018848818 0.25752518 0.1404317 0.075394936 0.011038517
0.14957571 0.09402042 0.07472607 0.11626391 0.09464865 0.21222794 -0.22599758 0.077871084
-0.23705943 -0.17274898 -0.0088357655 -0.10889241 -0.090704806 -0.256557 0.057380572 0.32574955
0.18641494 -0.31562597 -0.2704284 0.041986845 0.090767875 -0.1369893 -0.14405803 -0.121513665
0.25050184 -0.16361986 0.039403573 0.24383585 0.024353165 -0.061229516 0.088344656 -0.05531589
-0.03086935 0.01258962 -0.23369884 -0.008783535 -0.042278957 0.0299132 0.04569415 0.16237973
-0.06705644 -0.07450993 -0.2589905 -0.19765228 0.061275065 -0.3171028 -0.16670036 -0.041302513
0.12736738 -0.13484915 -0.21258011 -0.10624156 -0.035671983 -0.013735851 -0.26052636 -0.093108974
0.042800825 0.14933877 0.022844654 0.07746276 -0.021750513 -0.007640521 -0.056983385 -0.22986725
-0.07284056 -0.056323294 0.2045927 -0.063031524 0.10217318 0.29722562 -0.26032323 0.077754766
0.0829969 -0.18708259 0.030664708 -0.27214766 0.15799391 -0.064436585 -0.13852327 0.047117528
-0.083811864 -0.15602803 0.15547477 -0.18306729 -0.067725345 0.18259859 -0.06289609 0.11131098
-0.106029555 -0.19109781 -0.10354809 -0.1833186 -0.06638199 -0.086412236 0.12318454 -0.0032631014
-0.06578796 -0.11188398 0.06991106 0.056404646 0.30586442 -0.051122688 0.05275602 0.26120648
-0.24958993 0.14962755 -0.040484127 0.05892347 -0.07153051 -0.041057356 0.035977773 0.107068345
0.04292843 -0.056119636 0.08502411 -0.0597778 -0.11635746 0.046936285 -0.08385671 0.021004763
-0.2298809 -0.20220484 0.109576054 -0.04580114 0.07179679 0.029027285 -0.15164392 0.27668315
-0.046782546 0.073151685 0.30741197 -0.01532289 0.17455906 -0.11558191 0.003526645 -0.2785538
0.061216123 -0.13700627 0.019919239 -0.024432143 0.120576784 0.29839838 0.23190694 0.032811366
0.2748627 0.14087024 -0.13316666 -0.008898174 -0.17497163 -0.18827933 -0.04517867 0.11424276
-0.02884933 0.05041292 -0.003196511 0.07137835 -0.15865712 -0.11497059 -0.14899583 0.0332607
-0.15515213 0.25533643 0.1283697 -0.17280926 -0.26845717 -1.357279e-05 -0.07669767 0.06551413
0.25056756 0.07940611 0.030038554 -0.030989673 0.098797515 0.2858315 -0.075421706 0.21331552
0.050569363 0.07021548 0.13277406 -0.020435575 0.039019212 0.23741952 0.17557508 0.053393703
0.5015081 -0.25801367 0.088981055 0.31573012 -0.08887374 0.17803386 -0.06636738 0.090503745
-0.24119127 0.18608655 0.056554355 -0.29440492 0.20087802 0.052412175 0.1694443 -0.0089367395
-0.06571994 0.17663325 -0.15861559 0.16231519 -0.041380085 0.036182895 -0.14700182 -0.11653124

weight_hh_l0_reverse f4 [100, 25]
00000000: f8d1 8fbe 7d2b ac3e 3d77 36be 4194 be3e
00000010: e08e 123d 984b 0dbc aaa0 abbe 89dc 65be
00000020: e9e2 42be c12f 4bbe 9f53 d43e 5fef 91be
00000030: 4584 cf3e 9f67 713d 5e19 1ebe 63cb 473e
00000040: 5520 a53d f412 2ebd 6eea 30be aa08 113e
00000050: e92f 90bc d1f9 61bd 0e6a a2be d49f 343e
00000060: d92d 323e 8347 a9bd 2059 913e 900b 8bbe
00000070: da58 8b3e 8e93 9b3e aa31 513e 8e89 02be
00000080: 752b a6be 36f8 85be 9173 8bbd 26e4 a03e
00000090: af46 9abd ab7f 463e 277e 28bd 812a dd3c
000000a0: ad4c 483e 263f bc3e e52e 07bd 6f98 0dbe
000000b0: bd4c 98bd 862f e9bd cab0 d63c 6c19 03bc
000000c0: 787c 003e c190 dcbd 0a11 8fbe 304c 3a3e
000000d0: 494b 6ebd 5c0e fa3d 2bd9 b83e 1f21 fd3c
000000e0: 3579 e3be 4c83 03be d859 17be 17ec 9abe
000000f0: c663 b03d f9a1 d3bd 451d 643e 4f4f f33d
00000100: e9b7 58be 3f21 5c3e 3525 443e eee1 adbe
00000110: 6733 8dbe 04cd 9c3e f1d2 5dbe d226 aa3d
00000120: 55a3 35be 541f 223e 6528 0c3e 93ef a0be
00000130: 4a0f 8c3e 837c debe 279b ad3e 0130 223e
00000140: a91d a1bc 66d6 eebd eb98 e6bd 124b 82be
00000150: 12d2 d0be 897e 783e 3602 e7be 5122 743e
00000160: 0ef5 0f3e 1a9c 8fbe e836 423e f4e5 643e
00000170: 07f1 40be 4195 bdbe afca af3e f386 fabc
00000180: 37f1 8a3c b36c f5be f185 b43e e71c abbc
00000190: a966 2abe 1eaf 893e 8132 1a3c b31c 633e
000001a0: 3802 963e 1a4c 43be 4aaf 903e be65 1fbe
000001b0: b7da 0e3e 79eb 1b3d 011d ee3d 8cd9 acbe
000001c0: 4cba 0a3d 3018 8b3d 5e6c 90bd 012d 043d
000001d0: 86a6 4e3d 72a2 31be 54c2 843d eb4f 303e
000001e0: e50d 8abd bf36 353e 1838 31be b932 b03d
000001f0: 0364 63bd 1510 f2be 8036 e93d a0d5 b5be
00000200: 5511 9e3e ef27 723e e176 013e ffda 393d
00000210: 32ff 97be a42b 65be 0ccf b1be c8e1 ff3e
00000220: 938b c7be d569 413e f140 703b f82c 3ebe
00000230: 1bb4 493e ee65 e53e 6511 ebbe 8d44 8cbe
00000240: 720d 253e 0adc 6cbe b85c 1a3e bed4 e7be
00000250: 48cf 953e 027d 123e 28e8 91be 8e38 743d
00000260: 11f6 8ebe b28c 0e3e 21f9 6c3e 2296 e0bd
00000270: 09de b6bd 9ced 9bbe 4f41 b4bd ef29 96bd
00000280: 26d5 b43e 4447 4bbe b48b f53d face 913e
00000290: 13d9 b23a 078d 783d f641 ed3e 6a0e bfbe
000002a0: 7759 1cbe 3cac 3f3e 505d 84be b928 0fbe
000002b0: 0179 36be 0ecd 3c3d 0ceb 813c 05cd c0be
000002c0: ba24 d93e b806 d9be bbc4 673e 96b2 613e
000002d0: a11b 8cbd a8c3 8abe b45b 8dbe 0d5b 8cbd
000002e0: 0ebb 08be b8c3 a43e b0b9 a9be e82d e13e
000002f0: d106 743e 8145 53be 01ee 883e c7e6 b23e
00000300: 86c8 c3bd b4dc 36be 5c47 833c 165f b9be
00000310: b775 29be 6075 86bd 6046 a33e 9ad4 593e
00000320: 0326 74be fdd1 893e adbd ffbe 9c1d f53e
00000330: 9f4b f23e 3981 84bc eab9 b4be 495a 07be
00000340: 45b4 11be f4a0 70be 9c16 b73e a569 11be
00000350: 2dbb 0e3e f112 23be d532 0ebe cbce 303e
00000360: 1752 e33e 9362 dfbe 88e2 a1be cc35 1e3e
00000370: 7519 d7be 7a90 3b3e 59a2 acbe ee99 6f3e
00000380: 231b 9b3e c964 d1bd fd1f 2f3e c175 83be
00000390: 2d36 6f3e 2b99 893e 1452 4f3e 15e7 84be
000003a0: cd5c e1be 2998 12be 73dd 07be 3ec1 dc3e
000003b0: ca64 b3be cf77 a13e 6111 cd3d 2cf9 2fbe
000003c0: 1922 bc3d b128 243e e3b9 0dbe 7049 9ebe
000003d0: 659c 1a3e f3cd e0be 6acd ff3d 7731 e4be
000003e0: f064 10bd 1091 a03e 38d5 8abe bc7d f03d
000003f0: 955d 80be 0de3 933e 9765 143e b092 b13e
-0.2808988 0.3362693 -0.17818923 0.37222484 0.035780787 -0.00862398 -0.33521014 -0.22447409
-0.19031872 -0.19842435 0.41470048 -0.28502938 0.405306 0.05893671 -0.15439364 0.1951118
0.080628075 -0.042498544 -0.17276928 0.14163461 -0.01760097 -0.055169884 -0.31721538 0.17639095
0.17400302 -0.08265593 0.2838831 -0.2715726 0.27216226 0.30386013 0.20429102 -0.12747785
-0.3245503 -0.26165932 -0.06809152 0.31424063 -0.07533013 0.19384639 -0.041135933 0.026997807
0.195605 0.36766928 -0.033003706 -0.1382768 -0.07436512 -0.113860175 0.026207346 -0.0080016665
0.12547481 -0.10769797 -0.27942687 0.18193126 -0.058177266 0.1220977 0.36103186 0.030899582
-0.4442841 -0.12843055 -0.14780366 -0.30258247 0.0861278 -0.10333628 0.2227679 0.11880361
-0.21163906 0.21497057 0.19154818 -0.33961433 -0.2757828 0.30625165 -0.21662499 0.08308186
-0.17738087 0.15832263 0.13687284 -0.3143278 0.27355415 -0.4345437 0.33907434 0.15838625
-0.019667463 -0.11661987 -0.112596355 -0.254479 -0.4078527 0.2426702 -0.45118874 0.23841216
0.14058325 -0.28048784 0.18966258 0.22353345 -0.18841945 -0.37027934 0.34334323 -0.030581927
0.016960723 -0.47934493 0.3525844 -0.020887805 -0.16640724 0.26891416 0.009411455 0.22178917
0.29298568 -0.19071999 0.28258735 -0.15566155 0.1395062 0.03806636 0.11626626 -0.33759725
0.033869073 0.06791723 -0.070519194 0.03226948 0.050451778 -0.17347124 0.06482378 0.17217986
-0.067409314 0.17696665 -0.17306554 0.086034246 -0.0555153 -0.47277895 0.11387348 -0.35514545
0.30872598 0.23648046 0.12643005 0.045374867 -0.29686886 -0.22379929 -0.34728277 0.49976945
-0.38973674 0.18888028 0.0036659802 -0.18571842 0.19697611 0.4480433 -0.45911708 -0.2739605
0.1611841 -0.23130813 0.15074432 -0.45279497 0.29259706 0.14305499 -0.28497434 0.059624247
-0.2792211 0.13920859 0.2314191 -0.109661356 -0.089290686 -0.3045472 -0.08801519 -0.07332217
0.3531887 -0.19851404 0.11989537 0.28478223 0.0013645015 0.06068137 0.46339387 -0.37315685
-0.15268503 0.18718046 -0.25852442 -0.13980378 -0.17819597 0.046093993 0.01585915 -0.37656417
0.42410833 -0.42387938 0.2263364 0.22040781 -0.06841207 -0.271024 -0.27609026 -0.06853304
-0.13352606 0.32180572 -0.3314948 0.43980336 0.23830725 -0.20631982 0.26744083 0.34941694
-0.09559731 -0.17857629 0.016025238 -0.36205357 -0.16548811 -0.06565356 0.3188963 0.21272507
-0.23842625 0.2691802 -0.499494 0.47874153 0.4732332 -0.0161749 -0.3529809 -0.13218035
-0.14228924 -0.23498899 0.35759437 -0.14200456 0.1393859 -0.15925194 -0.13886578 0.17266385
0.44398567 -0.43629894 -0.31618142 0.1545021 -0.4201161 0.18316832 -0.3371761 0.23398563
0.3029414 -0.10224301 0.17102046 -0.25675777 0.2336051 0.2687467 0.20246154 -0.25957552
-0.44016114 -0.14315857 -0.1326807 0.43116182 -0.35037833 0.3153672 0.100130804 -0.17184895
0.09186191 0.16031148 -0.13840441 -0.30915403 0.15098722 -0.43907127 0.124903515 -0.4456899
-0.03525251 0.31360674 -0.27115798 0.11742732 -0.25071397 0.28884163 0.14491878 0.34682226

bias_ih_l0_reverse f4 [100]
00000000: b9f3 9f3d 124b a53e 806a 033e b294 e03e
00000010: 3c67 9d3e 1fdb 173e 760e 983e 9a36 0a3e
00000020: 6736 ba3e 8888 a83e f68e 903e f589 7d3e
00000030: e520 a63e c953 9c3e 7252 a63e e3ce ed3d
00000040: 8245 883e 7012 863e 936d 5c3e 98d7 703e
00000050: 9fa2 d53d 80f9 823e 56a3 643e da41 a63c
00000060: 6564 5a3e 8350 a43e 4643 c93d 1f51 683e
00000070: 36fc e0bd 374d 6f3e df32 adbc 1263 9cbd
00000080: 9a0c 633e a7e9 b7be dd8d 123d 1ab3 373d
00000090: 5165 adbd f71b 75bd 4d7d e2bc ddb5 42bd
000000a0: 6200 fdbd 6e14 39bd ee32 823c c31d 633d
000000b0: bf11 20be c26a cc3a 3f1b ccbd 6263 343e
000000c0: 2854 963d 3566 a93d a113 fcbd 74d1 7b3e
000000d0: fe3f a3be e448 d03d de6e 8e3e ba71 b2bc
000000e0: 8745 f3bd 6a8e 0ebe 4ad8 a0bd 6d4d 29be
000000f0: 0cbc 843e c481 8fbe f669 903e 571c 863e
00000100: 670a 40be 999d 173e 9779 e93d 95c9 c8bd
00000110: 1d77 0abd b6ee 853e a4ac b73c 50a0 293e
00000120: cf1e 933c 93be 273e c070 3f3d c63e aa3e
00000130: f87e a83e ad80 813e 7906 c13e 6d32 a23e
00000140: 7629 7d3e b8e8 bf3e 3917 8f3e 9637 793e
00000150: 445b 413e 0059 e63d af18 3fbc 7d3b 663e
00000160: 81cb 983e 3a8f 993e 136c a13e 4abb b13d
00000170: 98d2 bb3e 3458 b83e 21e4 463e f4f4 863e
00000180: 20a3 cf3e 3099 c43d 1213 313e 592a bf3e
0.07810158 0.32283837 0.12833595 0.43863446 0.30742824 0.14829682 0.29698533 0.13497391
0.3636963 0.32916665 0.2823407 0.24759658 0.32446972 0.30532673 0.32484776 0.11611726
0.2661553 0.26185942 0.21526174 0.23519742 0.10431408 0.25580978 0.22327933 0.020295072
0.2132736 0.32092676 0.098272845 0.22687195 -0.109856054 0.23369299 -0.021142421 -0.07636084
0.22172776 -0.3592045 0.035779823 0.04484854 -0.0846659 -0.059841122 -0.027647639 -0.04753672
-0.12353589 -0.0451855 0.015893426 0.055448305 -0.1563177 0.0015595781 -0.09966134 0.17616037
0.0734027 0.082714476 -0.123084314 0.24591619 -0.3188476 0.10170153 0.2781896 -0.021782745
-0.11878496 -0.13921514 -0.07853754 -0.16533442 0.25924718 -0.2802869 0.28205842 0.26193497
-0.18753968 0.14806212 0.114001445 -0.09804074 -0.033805 0.26158684 0.022421189 0.1656506
0.017959027 0.16381292 0.046738386 0.33251017 0.3290937 0.25293484 0.3770025 0.31679097
0.24722847 0.37482238 0.27947405 0.2433761 0.18882471 0.11247444 -0.0116636 0.2248363
0.2984276 0.29992086 0.31527767 0.08678301 0.36684108 0.36004794 0.19422962 0.2635876
0.40554142 0.09599531 0.17292431 0.37336996

bias_hh_l0_reverse f4 [100]
00000000: cd00 443e 71e0 ef3d 75de 313e 32f8 c43d
00000010: 4bde 0d3e 2e52 3b3e 0eb3 a33e 752b 863e
00000020: 1dff 193e 67c5 8a3e 8fc1 2b3e 45c7 4a3d
00000030: 8528 983e 5bdf 573e 3ff5 aabc 3ef4 a73e
00000040: a1dc 283d 56a7 3f3e b2b2 d33e f008 c93e
00000050: 77be 143c 357f 9f3e 784d 363d 7a1a 133e
00000060: a8cc 083d 37f9 28bd 0621 b23d eb8a 723e
00000070: 5ff3 01be dc9f 003e cdb6 8f3d 7720 fbbd
00000080: 4b45 303e ad01 8bbe bbfd 54bd 30dc 353e
00000090: 5add 5f3e 7a3e 533e 5d3c 5a3d 7450 c33d
000000a0: ab68 2e3e 4e25 ccbd cbef dd3d c12d 8f3c
000000b0: a1c7 68be 48a7 3d3d 6901 3bbd 69b1 aa3d
000000c0: b11c 8f3d c6fb 3c3e ed58 21bd 50f8 d73d
000000d0: 9865 23be 385a 033e 0856 a5bc f4ed 863d
000000e0: 555d a0be 06c8 0cbe d2a6 9fbe 190c 8ebe
000000f0: e795 8b3e aafc 14be 0343 c13c 42cc 813d
00000100: 5291 dcbd 2b88 323e 1bd1 8d3e 03f0 4fbd
00000110: d212 49bd 93b5 a83e 9047 76be 82d6 603d
00000120: e899 4cbe 0716 0b3e 1c58 373e e773 ee3d
00000130: 319c c33c 0e2b 073e 4b79 a83e 1131 453e
00000140: 0c1f c93e a690 c13d 1b0e 993e 0396 b83e
00000150: 0312 ae3e b543 493e e3cd ac3e 4191 233e
00000160: 6c43 e43e 8db0 8e3e 3f0a 943e cd22 123e
00000170: 918a a13e 024e ff3d 33b2 9f3e f878 ec3d
00000180: 6b9a c23e 0f23 a23e 3142 6b3d 3cd0 c53d
0.1914093 0.11712731 0.17370017 0.09617652 0.1385433 0.18293068 0.31972545 0.2620503
0.15038724 0.2710373 0.16773055 0.049506444 0.29718414 0.21081297 -0.020868896 0.3280353
0.041226033 0.18716177 0.4134727 0.3926463 0.0090786135 0.3115174 0.044507474 0.14365569
0.0333983 -0.041253295 0.08697705 0.23685805 -0.12690495 0.12560982 0.07017288 -0.122620516
0.17213933 -0.27149716 -0.05199979 0.17759776 0.21861783 0.20629302 0.053280223 0.095368296
0.17032115 -0.09968053 0.108367525 0.017477872 -0.22732402 0.04630211 -0.04565564 0.083346196
0.06987894 0.18455419 -0.039391447 0.10545409 -0.15956724 0.12827384 -0.020182624 0.06588355
-0.31321207 -0.13748178 -0.3118196 -0.27743605 0.27262804 -0.14549509 0.023591524 0.06337787
-0.10769905 0.17434756 0.27698597 -0.050766002 -0.049090214 0.3295103 -0.24050736 0.05489207
-0.19980586 0.13582622 0.17904705 0.116432 0.023878189 0.13200018 0.3290504 0.19256999
0.392815 0.094514176 0.29893574 0.3605195 0.33998117 0.19654734 0.3375083 0.15973379
0.4458269 0.27869073 0.28914067 0.14271088 0.3155103 0.12466051 0.31190643 0.115465105
0.38008437 0.31667373 0.057436172 0.09658858

weight f4 [13, 50]
00000000: f4ca 33be f5a5 983e fdc3 88be e681 95be
00000010: cde4 e93d 4aa6 9b3e a455 d1be 483c ab3e
00000020: 8c05 a7bb 35c6 ccbe 11c9 8ebd 8856 953e
00000030: 03d2 98be a726 cfbe 8ae1 6ebe bf8e 9f3e
00000040: 570e ae3e c25d adbe 146e b83e d1a8 d63e
00000050: afe4 9cbe 10e3 b13e d6b6 a5be 3ce5 ac3e
00000060: 5c4d e33e 2720 db3d a98d e63d 0367 a83e
00000070: d3c4 aabe b6b2 a13e 7cff ca3e f641 9abe
00000080: 6d76 86be 4387 c23e 59a7 a7be b990 eebe
00000090: 947a 80be 5215 9bbe b6cb eabe 67a7 d23d
000000a0: cc30 a33c 4e1c 59be 0353 41bd b386 4fbe
000000b0: 8be3 e0be 197f 5bbe 5c90 cf3e f1ea b3be
000000c0: bcb8 a83e 9147 cebe f065 bf3e 79b9 eebe
000000d0: b92f bf3b cf09 4c3e 373a 25bd dfd0 163e
000000e0: ae3c 583e feb4 2bbe a489 e6be 7b3e 093f
000000f0: d015 683e cc55 e03e 6c1c 85be ba86 443e
00000100: 4215 ebbe 91fe 763e d0a4 193f 6dac cb3e
00000110: 2175 babd 1418 1abf 1cc8 06be cc3c b6be
00000120: 1941 d13e 02e1 80be 45b1 b2be 81f3 323e
00000130: 3b0a 8dbe 6f46 5ebe 50cd 993d 7baa ee3d
00000140: bc1c a8bd f4f7 433e 0d44 00be ec3f a4be
00000150: 491a 0f3e 7c02 9e3e b093 88be 8b96 34be
00000160: 738a 133e 3b28 ce3d 2dd3 12be 3985 45be
00000170: dde7 b1be 90c8 943d d806 e7be d793 1cbe
00000180: e9dd fa3e 29cb 1f3e e419 cbbe 56d8 e63d
00000190: 8894 eb3e 1da3 a0bd 56ef 9e3e 1a5d e43e
000001a0: e206 f1bd 8380 09be a67b 373e 31ac e03e
000001b0: 474a b13e a73e e53e f267 ff3d c052 24be
000001c0: 9099 0a3f 9331 8fbe 4932 d53e a469 033e
000001d0: 7142 47bd 24b8 52be 54af babe 28ae ffbe
000001e0: 4aee 99be 801c d43e da07 e2be 4a65 a9be
000001f0: 0d89 e9be 6a96 d0bd c8e9 a43e ec28 7f3e
00000200: 57cf 9d3e b63c a6be a1f3 c0be 57a9 e43e
00000210: f1aa c23e b611 073f 8a3b 0b3d a9bd a23e
00000220: c4b3 bebe b5fd af3e 494e 843d 9cbc 34be
00000230: 4544 b9be 4dbd a0be d11e 81bd df3f 86be
00000240: abdb 07bf efd9 70bd b9af b9be 9478 82bd
00000250: d1fc ddbe 7f25 8eba 914a ff3e 648e d43e
00000260: 312c be3e 0e1c dbbe 3f7b d93e 8db7 4f3e
00000270: 8398 393e 195b ae3e 36bd a3be 822a de3d
00000280: 2f2d e93d 877c 2cbe f024 083f 5fee a13e
00000290: 969d fc3e ea1c 06be f82f bf3e 5dc7 e23e
000002a0: eda0 3b3d 9c1d e9be c6a0 ba3e 2cf9 b8be
000002b0: 9059 ed3b dceb ea3e d1b3 50be 9842 dcbd
000002c0: d465 95be 1e57 2cbe 6308 b53e 0ddc b2bd
000002d0: 54fb 0f3f 1863 dc3e 6dd3 b0be b7ff 7c3e
000002e0: c0de 4e3e a789 7c3e ebca 973e 6f8f c9be
000002f0: c07e 02bf de0a a6be b1e9 253e 5cf4 e93d
00000300: 3c19 b13a b4dc 91be e014 943e e1ed 6e3e
00000310: 429d 60be 0cf2 b3bc 0b73 f8bd 4a0f 523e
00000320: c417 9b3e 5c88 e2be aab5 143e 7f11 a0be
00000330: 486b 5a3d 754d cd3c 6c36 3abd 29fd b73e
00000340: eb78 953e 6799 ae3e 7840 d0be 4d53 28be
00000350: 8fbe 053f d48d 79be d522 9fbe c7dc b4be
00000360: 50b2 f9be 136d 2e3e c7be 31be 91b3 ac3e
00000370: 674a e33e 6507 ad3e be6c a3be 3494 d53e
00000380: f21b bd3e 0fc0 c83e afe3 f93d 9618 bcbe
00000390: fe08 c93e 196d cabc 0bd5 7abe 486b 1b3e
000003a0: c954 923e 2c73 b63e c29a a43e b7db c5bd
000003b0: 3629 cb3e 0ef4 b3be 94f6 cebe e5ed b63e
000003c0: b4f6 b23e 883e a8bd d331 8cbc 2667 9a3b
000003d0: 51b6 01be 31a8 923b 9701 d0bd cf52 e43e
000003e0: 8592 413e b8f6 05be c961 50be d9b1 9bbe
000003f0: 182b cdbe 5667 ac3e 2be1 94be 52e9 d5be
-0.17557889 0.29814115 -0.26712027 -0.29200667 0.114205934 0.30400306 -0.4088565 0.33444428
-0.005097097 -0.3999497 -0.06971944 0.2916758 -0.29847726 -0.40459177 -0.23328224 0.31163594
0.33995315 -0.33860594 0.36021483 0.41925672 -0.30643222 0.34743547 -0.32366055 0.33768642
0.44394958 0.10699492 0.11257488 0.32891092 -0.3335329 0.31581658 0.39648044 -0.3012845
-0.26262227 0.37993822 -0.32744864 -0.4659479 -0.2509352 -0.30289704 -0.45858544 0.10285836
0.01992073 -0.21202204 -0.047198307 -0.20266227 -0.43923602 -0.21435203 0.40539825 -0.35140184
0.3295344 -0.40288976 0.3738246 -0.4662588 0.0058345464 0.19925617 -0.04033872 0.14728115
0.21116897 -0.16768262 -0.45026886 0.5361096 0.22664571 0.43815458 -0.25998247 0.19192019
-0.45914656 0.24120547 0.6001711 0.39779988 -0.09104372 -0.6019299 -0.13162273 -0.3559326
0.40869978 -0.25171667 -0.3490087 0.17475702 -0.27546868 -0.21706556 0.075098634 0.1165361
-0.08208606 0.19137555 -0.1252596 -0.3208002 0.1397487 0.3086127 -0.26675177 -0.17635553
0.14408283 0.10066267 -0.1433837 -0.19289102 -0.3474721 0.07264817 -0.4512241 -0.15290771
0.4899743 0.15604843 -0.3966819 0.112717316 0.46011758 -0.078436114 0.31041974 0.4460228
-0.11768891 -0.1342793 0.17918262 0.43881372 0.34626982 0.44774362 0.12470998 -0.16047192
0.5414057 -0.2796751 0.41639927 0.12833267 -0.048647348 -0.20578057 -0.3646189 -0.49937558
-0.30064613 0.41427994 -0.44146615 -0.3308509 -0.45612374 -0.10184939 0.3220961 0.24917954
0.3082225 -0.32468194 -0.37685874 0.44660446 0.38021043 0.527614 0.033992328 0.31785324
-0.37246525 0.3437325 0.06460244 -0.17650074 -0.36184898 -0.31394425 -0.06304706 -0.26220605
-0.5306956 -0.058801588 -0.36266878 -0.06370655 -0.43356946 -0.0010844915 0.49861577 0.41514885
0.3714309 -0.42794842 0.42476842 0.20284863 0.18124585 0.34053877 -0.31980294 0.108479515
0.11385571 -0.16844378 0.5318136 0.31627175 0.4933898 -0.13096967 0.37341285 0.44292727
0.045807768 -0.45530403 0.36450785 -0.36127603 0.0072433427 0.4588307 -0.20381095 -0.10754889
-0.2917925 -0.16830108 0.3535796 -0.087333776 0.5624287 0.43044353 -0.34536305 0.24706922
0.2020216 0.24661885 0.29647002 -0.39367244 -0.50974655 -0.32430166 0.16202427 0.11423561
0.0013511549 -0.28488696 0.28922176 0.23332931 -0.21934989 -0.021966003 -0.12131318 0.20513645
0.3029157 -0.4424466 0.14522424 -0.31263348 0.053324968 0.025061348 -0.045462057 0.35935333
0.29193816 0.34101412 -0.40674186 -0.16438027 0.52243894 -0.2437051 -0.31081262 -0.3532469
-0.48768854 0.17033796 -0.17357932 0.33730748 0.44392702 0.33794704 -0.319189 0.41714633
0.36935383 0.3920903 0.1220163 -0.36737508 0.39264673 -0.024710225 -0.24495332 0.15177643
0.2858031 0.35634744 0.3214932 -0.09661048 0.3967988 -0.35147136 -0.404225 0.35728374
0.34953845 -0.08215052 -0.017113602 0.0047120033 -0.12667204 0.0044756164 -0.10156553 0.44594428
0.18903549 -0.13082397 -0.20349802 -0.30409124 -0.4007194 0.3367259 -0.2907804 -0.41779572

bias f4 [13]
00000000: 1a39 bbbd 4a28 9a3c 9637 4fbd 79ed 873c
00000010: 670d c93c 06e4 353d c88d 283e f6dc 0dbe
00000020: 0b1f b1bd 4137 6f3d caaa ad3d 45e6 583e
00000030: b95a 79be
-0.09141751 0.01881804 -0.05059012 0.016592728 0.024542524 0.044406913 0.16460335 -0.13853821
-0.08648499 0.058402304 0.08479841 0.21181591 -0.24351014
